output/iv.pth (torch, 241906 bytes, 10 tensors)

fc1.weight f4 [256, 63]
000000 9d c6 8f bd bd e7 e2 3d f6 4d 08 be e4 87 9c 3d
       -0.07020304 0.11079357 -0.1331099 0.076431066
000010 44 b6 0a bd 37 9e 0e 3c 01 c7 87 bd f3 43 85 bd
       -0.03386523 0.008704714 -0.06629754 -0.06507101
000020 2e a2 64 3d b9 bb cf 3d d8 5f f6 3d 91 49 b7 3d
       0.05581873 0.10143227 0.120299995 0.089495786
000030 c9 2e 97 3d 64 4e 89 bd 14 43 e8 bd b3 0d ff 3d
       0.073819704 -0.06704405 -0.11340919 0.12453785
000040 13 e8 ce 3d 23 70 74 bd f7 7f 21 bc 90 ec 53 bd
       0.101028584 -0.059677254 -0.009857169 -0.051739275
000050 83 e6 31 bd db 48 a6 3c df 51 c9 3c 48 87 0c 3e
       -0.043432724 0.020298412 0.024575172 0.1372348
000060 0e f9 b1 bd 72 68 e2 3c 53 71 9a 3d 9f b7 bf bd
       -0.086900815 0.027637694 0.07541146 -0.09361195
000070 35 ef 8e bd e0 d9 13 bc 55 e4 e1 3d 6d 93 96 bd
       -0.06979219 -0.009024113 0.11029879 -0.07352338
000080 9a 79 f0 3d 3c 0d 04 bd 6e 51 9e bd c5 99 00 3d
       0.11741944 -0.032239184 -0.07730375 0.031396646
000090 60 04 9b 3c a9 c8 91 3d fc 11 53 3c 65 74 89 bc
       0.018922985 0.07118351 0.012882706 -0.016779134
0000a0 37 1f fe 3c 51 6e 77 3d b6 d3 ff 3b b1 e1 98 bd
       0.031020744 0.06040794 0.0078072203 -0.07464922
0000b0 51 61 76 3d 47 68 fc bd 21 72 a8 bd f7 10 04 3d
       0.060151402 -0.12324577 -0.08224893 0.03224274
0000c0 d8 85 be bc 11 55 9d 3d 39 17 1f bd 80 64 5b 3d
       -0.023257181 0.07682241 -0.038840506 0.05356264
0000d0 14 af fa 3d dd 47 f1 bd ac 1c 17 bd 36 56 67 bd
       0.12240425 -0.11781285 -0.036892578 -0.0564787
0000e0 21 ea 5c 3d 65 03 ad 3d bc 41 ab 3d f5 99 f0 3d
       0.05393422 0.08447913 0.08362147 0.11748115
0000f0 4d 43 ae 3d 1c 1c 82 bd 5c 29 c7 3d be 88 87 bd
       0.0850893 -0.06353018 0.097246855 -0.066178784
000100 e9 bd 92 bd 9f 67 0a 3d 20 40 e2 3d 41 6d 09 bd
       -0.07165129 0.033790227 0.11047387 -0.03355146
000110 fc 6e d0 3d 37 bd e3 bd 14 c3 4b 3d a0 86 93 bd
       0.101774186 -0.11120074 0.049746588 -0.07203412
000120 6d 11 6a bd 92 d5 e0 3c e7 a5 9d bd f7 1d 62 bc
       -0.057145525 0.027445588 -0.07697659 -0.0138010895
000130 4e e0 89 bd 59 95 78 3d cb 18 04 bd 63 36 b2 3d
       -0.06732236 0.060689304 -0.032250207 0.0870178
000140 d7 c5 dd bc b6 42 ca bc 8f 55 4a 3c f9 88 37 bd
       -0.027071876 -0.024690013 0.0123495 -0.04480836
000150 09 86 d2 3d dd 1d 5f 3b be 93 07 bd bd fe 93 3d
       0.102794714 0.00340449 -0.033099882 0.07226322
000160 fa 82 1e 3e a5 a6 1a be 1b bc 86 bd 6b 75 96 3d
       0.15479651 -0.15102632 -0.06578847 0.073466145
000170 3c bd 43 bb 7f 76 88 3d 6d cc d0 bd d6 3e b3 3d
       -0.002986743 0.06663226 -0.10195241 0.087522194
000180 77 6f d4 3d 5f 1f 12 3d 30 50 91 3d 30 31 e1 3d
       0.10372823 0.03567445 0.07095373 0.1099571
000190 d4 f6 1b bb dc 54 e6 bd df 43 e2 3d 00 1f f6 3d
       -0.0023798244 -0.112466544 0.11048102 0.120176315
0001a0 37 2a 94 bd 93 fa 1f 3e d5 4b 8a 3b b7 1b 54 bc
       -0.07234614 0.1562293 0.0042204657 -0.012946061
0001b0 92 8c 1f 3e 30 77 85 bd 63 85 41 bd 82 2d 19 3e
       0.15580967 -0.06516874 -0.047246348 0.14958766
0001c0 c5 fa 15 3e 83 7d 82 3d 74 78 fa 3c d9 81 92 bd
       0.14646442 0.06371596 0.030575015 -0.07153673
0001d0 aa 31 24 3e f1 0b a6 bb 9b fd 70 3c b4 d7 44 bd
       0.1603457 -0.0050673415 0.014708902 -0.048057273
0001e0 4f a9 42 3e 8a 62 ed 3d 5c fa 46 bc 97 e5 eb 3d
       0.19009899 0.115910605 -0.012144651 0.115184
0001f0 74 28 07 3e 66 2c 24 bd 6d 7b 12 3e d3 2d 87 bc
       0.13199025 -0.040081404 0.14304896 -0.016501343
000200 ed 5c ce bc 51 93 c2 bd cd c4 c3 bd c0 95 5e 3d
       -0.025190795 -0.095007546 -0.09559021 0.05434203
000210 81 4c 24 bd 93 c2 de 3d bb 7b 87 bd 7c 54 fb bc
       -0.040112022 0.10876956 -0.066153966 -0.030679934
000220 9f 49 33 3e 43 8b 19 3d d0 90 dd 3d f7 57 2d 3e
       0.17508553 0.037486326 0.108186364 0.16928087
000230 73 00 03 3e 10 e8 ed 3a de 66 f1 3c 51 81 2f bd
       0.1279314 0.0018150825 0.029467996 -0.042847935
000240 70 4e 90 3d 7a 33 79 bd 2e 81 85 bd 6c 47 fd 3d
       0.07046211 -0.060840108 -0.0651878 0.12367138
000250 27 ae 88 3d a8 12 e5 3d cb a3 0e 3c 4d 98 08 be
       0.06673842 0.11185199 0.0087060435 -0.13339348
000260 21 e0 29 3d 06 13 bc bc 16 c8 87 3c 6a 4c dd 3d
       0.04147351 -0.02295829 0.0165749 0.108055905
000270 05 5c a1 3d 2d ef 9f bd 9e 82 e6 3d 5e 11 07 bb
       0.078788795 -0.07809291 0.11255382 -0.0020609717
000280 bf 15 c1 bd 62 34 ea 3d 5f ed c9 bd 19 6f ce bb
       -0.09427976 0.114357725 -0.09859728 -0.006299865
000290 77 4e a7 3d 93 98 91 3c 29 94 fd bc 93 36 f2 bd
       0.08169263 0.017772948 -0.030954437 -0.118268155
0002a0 dc 47 e2 3d 04 a7 fe bc d4 2e a5 3d 88 2c 21 bd
       0.11048862 -0.031085499 0.080655724 -0.03934911
0002b0 06 6b 0c be 25 3d cc 3d a1 6a 37 bd da 5f 1a 3c
       -0.13712701 0.099726 -0.044779424 0.009422267
0002c0 02 3e f6 bd e3 90 96 bd bb bf 8f bd 6f 3c 99 3d
       -0.12023546 -0.07351854 -0.070189916 0.0748223
0002d0 47 9f 85 bd 67 ca 6c 3d 01 41 45 bd ad 25 5e bd
       -0.0652452 0.057810213 -0.048157696 -0.05423515
0002e0 ca 3d c4 3a 17 85 01 be a5 3f c6 3a e3 1d 93 3d
       0.0014972028 -0.12648426 0.0015125169 0.07183435
0002f0 0a 3c d8 3d 3f 2d 1f bd d5 bb 0d bb a7 b0 ad bd
       0.105583265 -0.03886151 -0.002162685 -0.084809594
000300 51 f2 1e 3d 97 b6 13 3d 24 ea 87 bd 4b e3 b0 bd
       0.03880531 0.036062803 -0.06636456 -0.08637103
000310 71 01 1a bd 3e 4e bb bd 43 bb 64 bc 28 ef 97 3c
       -0.03759903 -0.09145783 -0.013960662 0.018546656
000320 7c b4 f6 3d 39 ed 98 3d bb 8f ac 3d 0c 1c f7 bd
       0.120461434 0.07467122 0.08425852 -0.120658964
000330 74 f7 bd bd 2b f5 a3 bd 3d d2 3a 3c 11 34 b8 bd
       -0.092757136 -0.080057465 0.011402664 -0.08994306
000340 49 5b f8 3d 6d 65 e0 bd f6 cb 93 bd 88 a7 60 bd
       0.12126786 -0.109568454 -0.07216637 -0.05484727
000350 6d bf a8 3d 44 33 ed ba 7c d7 64 3d 4e c6 e8 3d
       0.082396366 -0.0018096943 0.055869564 0.113659486
000360 be fe ca 3d 46 5f d6 bc 4f cb c3 bd ed 5c a3 bd
       0.099118695 -0.026168477 -0.095602624 -0.079767086
000370 c4 1e 9e bd 71 64 c2 3c e2 86 44 3d 12 70 5f 3d
       -0.07720712 0.023729535 0.047980197 0.054550238
000380 7d f1 91 3d 23 1e 1a bc 6b 7d f6 3d 7f 78 bd 3c
       0.07126138 -0.009406599 0.1203564 0.023128746
000390 f5 aa e9 bc 59 b0 a8 bd 4b 05 ab 3c 5d e1 c7 bc
       -0.028523901 -0.08236761 0.020876547 -0.024399454
0003a0 2c 3d e2 3d 33 01 a4 3d d0 62 f0 bd fb 88 93 3d
       0.11046824 0.08008041 -0.11737597 0.07203861
0003b0 da 31 94 bd d4 a2 e5 3d 76 64 9d bd db b2 74 3d
       -0.07236071 0.112126976 -0.07685177 0.059740882
0003c0 73 3b 5a bd 6b 14 75 bd 29 51 00 bd 87 ad b8 bd
       -0.05327935 -0.059833925 -0.0313274 -0.09017473
0003d0 64 00 74 bd 06 d7 14 bd 32 62 bd bc e5 94 04 bc
       -0.059570685 -0.036337875 -0.023118112 -0.00809214
0003e0 93 4d 52 bd 5a cf 77 3d 99 6b 5f ba d2 f7 0b 3d
       -0.05134351 0.06050048 -0.0008522808 0.034171887
0003f0 5a be 02 bd 14 4a 16 3e 85 49 a6 3d 14 be ab bd
       -0.031919815 0.14676696 0.081194915 -0.08385864

fc1.bias f4 [256]
000000 a0 cd 99 bd dd eb 94 3d 15 63 01 3e ca 81 ed 3c
       -0.07509923 0.0727155 0.12635453 0.028992552
000010 b3 6b d1 bc d6 d8 32 3c 18 ff 82 bd 1c bc 9b bd
       -0.02556405 0.0109159555 -0.063963115 -0.076042384
000020 79 70 c2 3d 25 93 f8 3d 01 b6 5a bd 5e e1 c3 bd
       0.09494109 0.121374406 -0.05339623 -0.0956447
000030 94 e8 d7 bd a1 31 b8 bd cc 20 c3 3d 16 2b 39 3b
       -0.10542408 -0.08993841 0.0952774 0.002825444
000040 09 8c b3 bc bf 10 c9 3c 20 a3 c6 bd ee f9 11 bd
       -0.02191736 0.024544118 -0.096990824 -0.035638742
000050 ba aa 70 3b b3 81 b1 bd 87 a1 63 3d cd b4 17 bc
       0.0036722855 -0.08667316 0.055573966 -0.009259415
000060 28 ac 4f bc 22 33 43 3d bf 17 46 3c 76 66 b0 bd
       -0.012675323 0.047656186 0.012090622 -0.08613293
000070 d6 8b c9 bc 07 a8 6f bd 81 52 0e 3d e5 81 de bd
       -0.024602812 -0.058509853 0.03474665 -0.10864619
000080 e5 55 8f bd 4e 03 ca bc f0 51 52 bd b6 ea d9 bd
       -0.06998805 -0.024659779 -0.051347673 -0.10640471
000090 b2 e1 d0 bd f3 44 0f bd a3 49 65 bd e8 d8 c6 bd
       -0.10199298 -0.034977864 -0.05597843 -0.0970934
0000a0 4c 87 b7 bd c1 c6 ac 3d 7c 31 9b 3d 5c a5 09 3d
       -0.08961353 0.08436347 0.07577798 0.033604965
0000b0 8e 6f 7d 3c 4f 18 fc 3b 80 03 58 3d 5c 82 d5 3d
       0.015468491 0.0076933275 0.052737713 0.10425255
0000c0 88 b7 cc bd 96 dc d0 3c ea ee 86 bd a3 01 27 3d
       -0.09995943 0.025495809 -0.06588538 0.040773045
0000d0 40 88 05 bd 67 89 82 bd 35 9e 5d bd bd cc e5 3d
       -0.03260064 -0.06373864 -0.054105956 0.11220691
0000e0 10 78 90 bd c4 5b e1 3d 6f a1 b9 3d 7e cc 23 3e
       -0.0705415 0.11003831 0.09063994 0.15995976
0000f0 dd 4c 3c 3d e7 16 94 3c 20 98 b1 bb f0 f7 a4 bd
       0.04597174 0.018077327 -0.005419746 -0.08055103
000100 d0 78 89 bd 07 7a 77 3d d9 41 fd 3c 70 d2 a7 3c
       -0.06712496 0.06041911 0.030915188 0.020486087
000110 ad e4 77 3d 80 10 da bc dd b6 fd 3c a0 d1 e6 bc
       0.060520817 -0.026619196 0.030970985 -0.028176129
000120 58 42 cf bd 61 6c e3 3d 24 56 b7 bd bd cf c6 bd
       -0.10120076 0.11104656 -0.08951977 -0.09707592
000130 50 ea ec bd dd 6e 49 bd 20 8d be 3d 2c 8b a1 bd
       -0.11568129 -0.049177993 0.09304261 -0.07887873
000140 3c e9 f6 bc f9 f1 08 bd 36 1f 91 bc 72 9c 8c bd
       -0.030140512 -0.033433888 -0.017715078 -0.06865777
000150 c5 7d b7 3d 15 a2 90 bd f7 d1 fa 3c 02 9b 95 bd
       0.089595355 -0.07062165 0.030617697 -0.07304956
000160 19 06 b2 3c 62 36 29 3d 79 2c ab 3c 6b 88 76 3c
       0.021731423 0.04131163 0.02089523 0.015047173
000170 0d ee 2e bc 47 6b e9 3d fa 00 1d 3d 68 99 ba 3d
       -0.010676873 0.11397415 0.03833101 0.09111291
000180 53 98 4c 3d b7 67 a0 3b 4d 4c d8 bd ab c2 e4 3d
       0.049949955 0.0048951763 -0.10561428 0.111699425
000190 36 7d 22 3d 6d 0e 7a 3d 9f 15 8a 3d 3c b5 d7 bd
       0.03967019 0.061048914 0.06742405 -0.105326146
0001a0 2e 38 e0 bd e6 bd 8f bd 89 56 76 bd f7 ff 0c 3e
       -0.109482154 -0.07018642 -0.06014112 0.13769518
0001b0 33 dc 43 3c 7a df 0d 3c d3 61 ea 3d dd 7f 96 3d
       0.011954355 0.008659238 0.1144444 0.07348607
0001c0 ea 81 cf bc 82 3f f3 bc 0b de ee bd 61 78 ef bd
       -0.025330503 -0.029693369 -0.11663445 -0.11692882
0001d0 84 8d 11 bd c7 55 79 bc a8 f9 cd bd 37 c2 b1 3d
       -0.03553535 -0.015218205 -0.10057384 0.08679622
0001e0 6a ae d3 3c 07 f2 9d 3d d2 1e 21 3c c5 44 30 3d
       0.025840003 0.07712179 0.009834008 0.043034334
0001f0 1d de c7 bd e4 e1 9a bc c2 df ad 3d d2 56 88 bd
       -0.097591616 -0.018906541 0.08489944 -0.06657185
000200 89 f1 39 3c 67 95 f8 3c e6 e8 a1 3d 16 d8 01 3e
       0.01134909 0.030344678 0.0790575 0.12680086
000210 f2 05 c2 bc fd ca b1 bd 0d 78 7c 3d 74 ee cc bd
       -0.023684476 -0.08681295 0.061637927 -0.10006419
000220 87 eb 0e 3d a0 59 a6 bd 37 b1 f9 bd f6 f0 24 36
       0.034892585 -0.08122563 -0.12192004 2.4578162e-06
000230 fa 00 29 bd 2f 73 6e bd a0 ee a2 bd f0 36 12 3d
       -0.041260697 -0.058215316 -0.0795567 0.035696924
000240 73 95 2e 3d 05 26 a1 3d 19 d6 cf 3d 1f a4 2f bd
       0.042622995 0.0786858 0.10148258 -0.042881127
000250 4c ae 13 3e 5f 26 ee 3d 7b 8d e3 bd 03 32 a3 bd
       0.14421958 0.116284125 -0.1111097 -0.07968523
000260 f7 76 8b 3d 78 48 88 3d 37 0f b6 bd 08 0e ac bd
       0.068098 0.06654447 -0.08889621 -0.08401114
000270 ca 00 68 bd f1 47 de 3d 8e f9 0b 3c b0 f4 c0 3d
       -0.056641378 0.108535655 0.008543385 0.094216704
000280 ff 4c 09 3c 5c fe 73 3c d1 73 99 3d c5 92 2e bb
       0.008380174 0.014892187 0.07492793 -0.0026637774
000290 44 8f 0a bd de d6 b5 bd 9f 0e cc bc f0 af 8b 3c
       -0.033828035 -0.08878873 -0.024909316 0.017051667
0002a0 2b c8 2a 39 ae 5b 9f bd 9a e5 01 3e 49 60 f3 3d
       0.00016287032 -0.077811584 0.12685242 0.11883599
0002b0 2f 3c 14 bd 38 bf 83 3c 28 22 ce bd f3 28 27 bd
       -0.036190208 0.016082391 -0.100651085 -0.040810537
0002c0 03 14 d8 3c d1 35 c9 bc ad 26 9e 3b d1 b0 1c 3d
       0.02637673 -0.024561794 0.004826388 0.038254563
0002d0 3f ef 9a bd 85 c4 a0 bd 61 55 a8 bd 33 b9 f3 bd
       -0.07565164 -0.07849983 -0.0821941 -0.11900558
0002e0 00 6e c5 3d 22 9e f3 3d ce eb ec bb 6f b4 23 3d
       0.096401215 0.11895396 -0.0072302585 0.039966997
0002f0 60 1a c3 3d 11 c0 40 3d 99 04 f0 bd 18 80 a1 bd
       0.09526515 0.04705817 -0.11719627 -0.0788576
000300 00 86 44 bd 2f b5 40 bb dd 7a 3c 3d d2 e1 c1 bd
       -0.047979355 -0.002940487 0.04601561 -0.094669
000310 e9 06 c8 3d b9 e5 ee bd 9c 4b 95 3c b0 52 99 3d
       0.09766943 -0.1166491 0.01822453 0.074864745
000320 1f a1 01 3e 76 1a b0 3d f1 b5 2a 3d 9c 5a eb 3d
       0.12659119 0.08598797 0.04167742 0.11491892
000330 e2 94 c2 bd 33 9c a1 bd 59 ab 4f bd 81 60 e4 bd
       -0.095010534 -0.07891121 -0.05070052 -0.11151219
000340 3f 1c bf 3d 05 b3 68 3d 34 b4 c4 bd aa 27 19 3c
       0.093315594 0.05681135 -0.096046835 0.009347836
000350 a3 27 2a bd fb 8a be 3d 0c ba c4 3d 1d 25 0e bd
       -0.041541707 0.09303852 0.09605798 -0.034703363
000360 7b af ce 3d ff f8 30 bd 55 78 55 3c 77 b9 ac bd
       0.10092064 -0.04320621 0.013029178 -0.08433812
000370 0c d4 30 3a cb 31 93 bd bb 7c d8 3c b9 68 08 3e
       0.00067454646 -0.07187232 0.026426664 0.13321199
000380 60 0a ee bd b7 53 ab bd 5f 0a 58 3d 6e e3 f6 3d
       -0.116230726 -0.08365577 0.052744266 0.120550975
000390 72 19 d6 bd 2d ff 92 3d d3 ef d0 3d 0e 0a 9a bd
       -0.10454072 0.07177577 0.10201993 -0.07521449
0003a0 5f a1 00 bd 85 a5 1f bc 86 62 ce 3d 2c 98 cf bd
       -0.031403895 -0.009744053 0.100773856 -0.10136446
0003b0 10 69 c6 3b 5f 7c ad bd 89 8b 73 3d 53 dc af 3c
       0.006055005 -0.084709875 0.059459243 0.021467363
0003c0 59 72 93 3d d4 ef 01 3e 14 97 e9 bd 43 4a 96 3b
       0.071995445 0.12689143 -0.11405769 0.0045864894
0003d0 93 90 35 bd b6 54 82 bc 5d 2b dc 3c fb 1c a5 bd
       -0.04432733 -0.015909534 0.026876146 -0.08062168
0003e0 69 73 17 3c a6 4a 25 3d 2d e3 94 bb ec 1c 8e 3d
       0.0092438245 0.040354393 -0.004543683 0.0693911
0003f0 74 03 35 3b 09 ce f0 3d a2 fe bc 3c 31 76 bd 3d
       0.0027620466 0.11758048 0.023070637 0.09251059

fc2.weight f4 [128, 256]
000000 84 48 42 b8 7b 6b d6 3d ad 91 ee 3c 20 90 18 bd
       -4.632074e-05 0.10469719 0.029122198 -0.037246823
000010 62 5b 96 bb c9 16 24 bd 12 d2 1b bd a2 bd 45 bd
       -0.0045885304 -0.040060792 -0.038042136 -0.04827655
000020 d8 42 30 bd 15 fb ea bc 9f 8c 57 3d 32 d3 50 bd
       -0.043032497 -0.028684178 0.05262434 -0.05098266
000030 fe 33 8f 3c 48 e2 84 bd 51 b6 73 3d 95 9b 3b 3d
       0.017480846 -0.06488472 0.059500042 0.04580267
000040 6c 34 cd bb c0 c7 93 3a 58 b6 a5 bc 0e b4 8b bc
       -0.0062623527 0.001127474 -0.02022855 -0.01705363
000050 e8 83 57 3c ce de 66 3d 12 34 8b 3c e0 ba 1b 3d
       0.0131540075 0.056364827 0.016992602 0.038020015
000060 8c 24 b2 3c 88 7e af 3c 72 58 0f bd 04 e7 ae bc
       0.021745943 0.02142264 -0.034996457 -0.021350391
000070 84 03 b0 3c 50 75 b5 ba 6d 97 25 3d 67 2c bf bc
       0.021486051 -0.0013844166 0.040427614 -0.023336602
000080 31 10 01 3d c0 91 e8 ba 30 c2 2c bd 30 a6 b8 3b
       0.031509582 -0.0017743632 -0.04217738 0.0056350455
000090 d0 b3 80 bc 76 df 0c bd e6 24 b9 bc ee 47 54 3d
       -0.015710741 -0.034392796 -0.022600602 0.05182641
0000a0 60 23 38 3c 30 fd 91 3b 94 f6 c2 3c 8b 64 17 3d
       0.011238903 0.004455231 0.023799218 0.03696112
0000b0 b0 f8 33 bc 70 79 c4 bc 70 a9 be 3d ee cd 3b 3d
       -0.010984585 -0.023983687 0.093096614 0.045850687
0000c0 00 fe 59 ba 40 48 bc bb e8 83 a6 3c a1 72 9d bb
       -0.0008315742 -0.0057459176 0.02032657 -0.0048049246
0000d0 17 cf ee bc 5c 57 a9 3a c2 2f ae bc c0 cc 42 bd
       -0.029151483 0.0012919712 -0.021263007 -0.047558546
0000e0 f1 7b ae 3d 0c 4e ca 3c 97 4e 86 3d 20 eb 15 3c
       0.08519734 0.024695419 0.065579586 0.009150296
0000f0 95 b6 09 bc ec 02 fe 3c c8 4e 9b bb 11 94 24 bb
       -0.008405347 0.031007253 -0.004739616 -0.0025112669
000100 fd 8c 2a bd 6c 79 18 3d 3a 07 17 3d d3 2e 67 bb
       -0.041638363 0.037225172 0.036872126 -0.0035275712
000110 f0 a7 45 3d 86 df 7b 3c be fa 40 3d 11 8d 2f 3d
       0.04825586 0.015373116 0.047114126 0.04285914
000120 72 e4 18 3d e8 77 c3 3c a6 ea 53 3d 13 30 2a 3d
       0.037327237 0.023860887 0.05173745 0.041549753
000130 d2 2e 75 bd bb ab 7c bc 40 d2 19 bd 04 bf 57 3d
       -0.059859104 -0.015421803 -0.037554026 0.0526724
000140 00 c7 2f 3d d1 f3 97 3d 43 c2 62 3d 37 37 41 bd
       0.04291439 0.07419551 0.055361044 -0.047171798
000150 2a 73 60 bd 6b ce f0 bc 86 0a 50 3d f4 92 73 bb
       -0.05479733 -0.029395303 0.050791286 -0.0037166448
000160 86 b5 e6 3c 48 0a b1 3c 93 3c 35 bd 27 ea 0b bd
       0.028162729 0.021611348 -0.04424722 -0.034158852
000170 50 00 59 3d b9 78 3a bd cb 12 0d 3c 54 03 1d bd
       0.052978814 -0.045525286 0.008610438 -0.038333252
000180 c5 85 d9 3b 25 2c 00 3d 17 ba 8c 3c bd 06 25 3d
       0.006638261 0.0312921 0.017178578 0.04028963
000190 74 34 ee bc 03 76 a8 bc 58 f3 54 3d c7 b2 16 bd
       -0.029077746 -0.020564085 0.051989883 -0.03679159
0001a0 7c af 57 bd 41 ed 25 bd de f9 17 3d f9 73 12 3d
       -0.05265759 -0.040509466 0.037103526 0.03575513
0001b0 0d 23 9f 3d eb b9 49 3d 81 05 98 3c f4 09 b3 3c
       0.07770357 0.04924957 0.018557312 0.021855332
0001c0 17 16 12 3d 7e 27 25 bc d4 e9 6d 3d 8e c9 61 3d
       0.035665598 -0.010080216 0.058084324 0.05512386
0001d0 58 fd 76 bc cf f5 2d bd 90 8a 5f 3c 41 68 00 3d
       -0.01507505 -0.04247075 0.013643876 0.031349424
0001e0 3a a3 7f 3d 56 f5 a8 3d e0 5c dd 3b d0 c5 8c 3b
       0.062411524 0.08249919 0.0067554563 0.004296042
0001f0 a0 ab 0e bb 82 f6 05 bd 10 61 95 3c b8 32 62 3d
       -0.0021769777 -0.03270579 0.01823476 0.05522415
000200 d0 45 c7 3c 00 ee a0 3d fd 8a 99 bd d0 1e ab bd
       0.024325281 0.07857895 -0.07497213 -0.083554864
000210 2c a9 85 bd 3b cd 26 bd 01 00 35 bd 44 44 1b 3c
       -0.065264076 -0.040723067 -0.044189457 0.009476725
000220 d4 43 b5 bc de 25 bd bc 0c 52 b9 3c 92 b7 05 bd
       -0.02212707 -0.023089346 0.02262213 -0.03264577
000230 6e 2e 66 bd e0 93 2b bd 9a 25 37 3d 2a eb 6d bd
       -0.056196623 -0.04188907 0.044713594 -0.058085598
000240 be 1e 6d bd 14 c0 60 3d e6 8a b2 bc 40 84 07 bd
       -0.057890646 0.05487068 -0.021794748 -0.033085108
000250 8f e2 ac bc d1 ad 8a bc 34 e9 4e bc 02 61 30 bd
       -0.021104125 -0.016928585 -0.012628842 -0.043061264
000260 44 0f 13 3c d0 bf 6d 3d 78 fe 48 bc 6c 09 86 3d
       0.008975808 0.058044255 -0.012267701 0.06544766
000270 e0 f5 3a bd f3 62 f6 3c 6e ae 32 bd e0 59 15 3c
       -0.04564464 0.03007648 -0.04362338 0.009115666
000280 aa 9a 25 3d 1a a7 a0 bc b0 76 26 3c 98 66 84 3c
       0.040430702 -0.01961093 0.010160133 0.016162202
000290 86 9f b9 bc 7c 37 5a 3d 47 51 94 bc 54 f1 2d bd
       -0.022659075 0.05327557 -0.018105162 -0.042466477
0002a0 29 0f aa 3c e4 14 70 3d 04 4f 86 bd 00 9e 90 ba
       0.020759182 0.058613673 -0.0655804 -0.0011033416
0002b0 9a 14 42 3d 9e 5f 11 3d 00 d9 be ba 98 43 74 3c
       0.04738293 0.03549158 -0.0014560521 0.014908694
0002c0 c0 5b 35 3c 90 d3 34 3d 60 0d 7f 3d 23 c1 b1 3c
       0.011069238 0.044147074 0.062268615 0.02169854
0002d0 80 cb ac 3b cc ee e8 bc e5 de 6f 3d 60 bd b7 bc
       0.0052732825 -0.02843418 0.05856218 -0.022429168
0002e0 80 7e 30 3b 7d 10 14 3d 13 7f 30 ba c6 46 31 bd
       0.0026930869 0.036148537 -0.0006732803 -0.043280385
0002f0 14 22 a1 bc f6 bc 48 3d 36 be 42 3d a0 5e be bb
       -0.01966957 0.049008332 0.04754468 -0.00580962
000300 d0 ee cc bc 42 b1 2c 3d 5a e2 10 bd 36 fe 2c bc
       -0.025016218 0.042161234 -0.035372116 -0.0105586555
000310 06 97 53 3d 2e 68 75 3d fd 74 13 bd e5 e4 1f 3c
       0.0516577 0.059913807 -0.03600024 0.009759163
000320 c1 0a 55 bb 50 4b c0 bb 01 af cb 3d fd ee 62 3c
       -0.003250763 -0.005868353 0.09945489 0.013850925
000330 b1 4a 56 3d b2 3c 55 bd c8 ab 26 3d 4a 24 6f bd
       0.052317325 -0.052059837 0.040691167 -0.058384217
000340 21 68 e4 ba 72 8e 96 bd b9 b1 16 3b b0 60 a7 3c
       -0.0017426052 -0.07351388 0.0022994115 0.020431846
000350 64 cc 6b bd d7 40 43 3d 41 67 83 3c 00 36 78 ba
       -0.05756797 0.047669258 0.016040446 -0.0009468496
000360 a0 49 20 bd 90 dc 95 3c 83 56 34 3c d5 cf 3c bd
       -0.039132714 0.018293649 0.011006954 -0.04609664
000370 18 7c 35 bd c8 af 37 bc 19 da 15 ba 91 66 03 3d
       -0.0443078 -0.011211343 -0.0005716398 0.032080237
000380 00 c0 b3 b8 f0 6d 3e 3d cc e3 4f 3d 10 af 76 3c
       -8.571148e-05 0.046491563 0.050754353 0.015056387
000390 c9 72 b4 bc c3 b0 9f bd 30 e7 8f bb 4c 8d 6d 3d
       -0.02202739 -0.077973865 -0.0043915734 0.05799608
0003a0 54 b1 e1 3c ec 25 31 bc d1 29 7a bd 6d eb 4d bd
       0.027550377 -0.010812264 -0.061075035 -0.050273348
0003b0 21 64 b3 3b c9 08 13 3d f3 43 5c 3d a4 ff 7d bd
       0.005474583 0.03589705 0.05377574 -0.062011376
0003c0 ab f9 17 bd 66 68 19 3c 13 83 b0 3d e0 5e 18 bc
       -0.037103336 0.009363269 0.086187504 -0.009299964
0003d0 f2 24 4a bd ad 58 83 bd 27 7c 93 bc e6 2d 3f 3d
       -0.04935164 -0.06413398 -0.018003536 0.04667463
0003e0 5f 4e 0a 3d ec 0c da bc 49 88 37 3d ac e8 6e 3d
       0.033766147 -0.02661749 0.044807706 0.058327362
0003f0 d0 ba dc 3c 94 fe 90 bc 40 16 1e 3d 8f ec da bc
       0.026944548 -0.017699517 0.038595438 -0.026724128

fc2.bias f4 [128]
000000 ab 44 8f 3c f2 b5 61 3b d4 79 85 bc 7c a1 17 bd
       0.017488798 0.0034440723 -0.016293444 -0.037019238
000010 3c 6f 5c 3d a2 ae 21 3d fc b6 42 bd a7 b0 e2 bb
       0.05381702 0.039473183 -0.04753779 -0.0069180313
000020 72 dc f7 3c fc 7b 73 3d 96 f8 0a 3d 62 51 42 bc
       0.030256484 0.059444413 0.033928476 -0.0118602235
000030 40 06 19 bc 1e b9 93 3c d3 0a 7b 3d b0 b7 a8 3b
       -0.009339869 0.018032607 0.06128962 0.0051488504
000040 3c fe 96 3c 4f 01 1f 3d 6c 1b f7 bc b3 2e de 3c
       0.018431775 0.038819607 -0.030164443 0.027121877
000050 2b c4 80 bd 0b 65 f0 3c 31 ce 45 3d e9 8e cc 3d
       -0.06287416 0.029345056 0.048292343 0.099881954
000060 40 64 16 3d 6b a4 8b 3d 34 e5 61 3d d0 5b 57 3c
       0.0367167 0.068184696 0.055150226 0.013144448
000070 f9 1c 9a 3d 40 e6 1b bc 4b 74 f6 3c 01 35 2a 3d
       0.07525057 -0.009515345 0.03008475 0.041554455
000080 14 b2 21 3d f9 5c aa 3c 6b 50 b9 3d 76 26 5e bd
       0.03947647 0.020796286 0.09048542 -0.054235898
000090 06 73 74 bc 8b cc 44 3c 8a 32 8b 3d 7d 43 5d bd
       -0.014920002 0.0120116575 0.06796749 -0.05401944
0000a0 33 04 ba bc 5d f2 fc 3c 79 c6 2d 3d c8 6b 92 3d
       -0.02270708 0.030877287 0.042425606 0.07149464
0000b0 52 7a 5e bd a0 54 0a bc 3b 79 c9 bb 2f 9b 52 3b
       -0.054315872 -0.008443028 -0.006148485 0.0032135954
0000c0 c0 60 cb 3c 17 8a 38 3c 15 04 a9 3c e1 47 7f bd
       0.024826407 0.011263392 0.02063183 -0.06232441
0000d0 a0 2f 51 bc cf 24 9a 3c 71 aa 99 3c c7 8d 54 bd
       -0.012767702 0.01881638 0.01875803 -0.051893022
0000e0 80 e7 5f 3c 48 68 19 bd a4 36 db bc 0b ba ae 3d
       0.013666034 -0.037452966 -0.026759453 0.08531579
0000f0 a0 53 16 bd e4 67 45 bd ca 7b 07 3d 37 89 1f 3d
       -0.036700845 -0.04819478 0.03307704 0.038949218
000100 40 54 3e 3c ec 49 e6 3d 79 e5 a6 bc 64 62 2b bd
       0.011616766 0.11244568 -0.020373093 -0.04184188
000110 d8 38 a1 3c 65 3c f1 bc c7 b1 88 3d 00 5e 15 bb
       0.019680426 -0.029447744 0.06674533 -0.0022791624
000120 9d fe 42 3d d0 0d 72 3d cf 09 6c 3d 0a 11 58 3d
       0.0476061 0.059095204 0.05762654 0.052750625
000130 62 53 41 3d 35 16 7c 3d f2 86 18 bd 12 94 fe 3c
       0.04719866 0.061544616 -0.03723807 0.031076465
000140 bc 79 7e bd 9a 85 64 bd 2e 2e 42 bd b0 95 49 3d
       -0.062127814 -0.055791475 -0.04740732 0.04921502
000150 87 18 92 3d dd 17 19 3d 34 f2 2a 3d 09 b7 b3 3d
       0.071335845 0.037376273 0.04173489 0.087751456
000160 72 c3 5c 3d 94 74 01 bd 4c 03 50 bd 5d ef 07 bd
       0.05389733 -0.03160532 -0.050784394 -0.03318726
000170 75 5b e6 3c 8c 8b 84 3d a6 9d f3 bc 10 87 4f 3d
       0.028119782 0.06471929 -0.029738259 0.050665915
000180 47 9a 9e 3b 78 0c bf 3c a4 ce 4d 3d 08 8f 28 bc
       0.0048401686 0.023321375 0.050245896 -0.010288008
000190 40 c4 1a 3d 32 e3 89 3d 95 a5 b4 3d a2 e9 93 3b
       0.037784815 0.06732787 0.08820645 0.004513935
0001a0 c9 78 ab bc 38 dc ec 3c 35 16 c3 3c 77 05 14 bc
       -0.020931618 0.028913602 0.0238143 -0.009034506
0001b0 ca ae 5d bb 5a e6 03 3b f7 08 ed bc e2 24 59 bd
       -0.0033826106 0.0020126314 -0.028934939 -0.05301369
0001c0 9d c7 b6 3d a4 4b 78 bd b8 ac dc 3b c2 cd 73 bd
       0.08924792 -0.06061901 0.006734457 -0.059522398
0001d0 05 6d f4 bc 78 11 8b 3d 5e b8 d9 3b b7 78 8b bc
       -0.02983714 0.06790441 0.0066442927 -0.017025335
0001e0 f0 d3 c7 3d 28 84 42 bd be 66 66 3d ec d3 b3 bc
       0.09757221 -0.047489315 0.056250326 -0.021951638
0001f0 5f e4 ea bc a4 ff 97 bc 11 43 8b bb 59 09 59 3c
       -0.028673349 -0.018554516 -0.0042499383 0.013246858

fc3.weight f4 [64, 128]
000000 8f 7f 8b 3d 31 94 94 3c bf a0 2a bd 83 d8 d3 3a
       0.06811439 0.01813707 -0.041657206 0.0016162548
000010 1f 0d d4 3d 36 18 b7 3d ad 73 29 bc d8 f1 1b 3b
       0.10354065 0.08940165 -0.010342521 0.0023795273
000020 0f 58 72 bb 9c c1 f4 bb 89 d1 65 bd 23 66 9e bc
       -0.0036978757 -0.007469369 -0.05610803 -0.019335812
000030 03 18 a0 bd bc a2 97 bc 52 bd 9f bd f2 b4 6d bd
       -0.0781708 -0.018510215 -0.07799782 -0.05803389
000040 c1 4b f9 bc 96 b1 8d 3d d8 0a 79 3d 81 05 36 bd
       -0.03043163 0.069186375 0.060801357 -0.044438843
000050 91 7c d0 bc ca 07 97 3d eb eb 6c 3d f9 98 86 bc
       -0.025450023 0.073745325 0.057842176 -0.016430365
000060 7e b2 06 3d a8 9d 19 bc ca d7 86 bd 15 76 03 3c
       0.032885067 -0.009375967 -0.06584127 0.008023758
000070 00 69 7b 3c 2c c7 94 bd b1 e7 3e bd 60 ee 9c 3d
       0.015344858 -0.072645515 -0.046607677 0.07662654
000080 af d5 da 3c 5e 7b b7 3c 6d 76 c8 3d f0 e4 61 3d
       0.02671322 0.022397693 0.09788213 0.055149972
000090 ae 9c f8 bb 15 4e ae bc 67 e7 a3 bc d0 89 13 3d
       -0.007587037 -0.021277467 -0.020007802 0.0360201
0000a0 e8 11 95 3d e8 0a c1 bc 39 78 f4 bb 32 16 5f 3d
       0.07278806 -0.02356477 -0.0074606207 0.054464526
0000b0 92 e9 eb bc e0 9b e3 3c 89 4e 9d 3c f3 78 6a bd
       -0.028797898 0.027784288 0.019202488 -0.057244252
0000c0 98 16 0f bd 2c 3f 50 b9 53 b9 ad bd 07 aa f2 bc
       -0.034933656 -0.00019859959 -0.084826134 -0.029622091
0000d0 7b f3 02 3d d0 d1 ac 3c 21 3f 9b bd 42 38 64 bd
       0.031970482 0.02109614 -0.075804 -0.055717714
0000e0 41 9e f6 bc 0d de 96 bd 60 c6 94 bc 9d 60 11 3d
       -0.030104758 -0.073665716 -0.018160999 0.03549253
0000f0 00 90 ae 3c a7 01 29 bd ac 9a 5b 3d 51 cb 0d bc
       0.021308899 -0.04126134 0.053614303 -0.008654431
000100 d7 48 6c 3d a7 07 f9 3d da bd c4 3c a9 92 2f 3d
       0.057686653 0.12159663 0.02401631 0.042864475
000110 d1 1f 7d bd c7 03 f6 38 a8 0f 92 3b aa f5 42 3d
       -0.06179792 0.00011730898 0.004457433 0.047597565
000120 a5 3f 8c 3d b5 f7 52 bd 50 47 5e bc 79 82 02 bd
       0.06848077 -0.051505763 -0.013566807 -0.03186271
000130 5e 84 c8 3d 21 e7 97 ba 5a 80 93 bd 16 02 39 bd
       0.09790872 -0.0011589268 -0.072022155 -0.045168005
000140 d9 6c c6 bc b2 e6 6d bd de a7 91 3d a6 8b 0c bd
       -0.024221824 -0.058081336 0.07112096 -0.034312867
000150 ff 7e 25 3d 83 97 8a bd 26 43 bc 3c e1 f3 35 bc
       0.040404316 -0.0676718 0.022981238 -0.011105509
000160 bd 21 29 3c 2a 89 2f bc 2b 71 a5 bd ac 3d ba bc
       0.010322985 -0.010713855 -0.08078226 -0.022734486
000170 9a 36 9e 3c 16 8e 34 bd a2 bc 8d 3d af b6 d3 bb
       0.019313145 -0.044080816 0.069207445 -0.0064609866
000180 14 dd 22 bd 5f 11 9f 3d 65 61 d5 3d 97 0c 25 3d
       -0.039761618 0.07766985 0.10418967 0.04029521
000190 36 ad 92 3d 85 f5 44 3c 2e 7c 09 3d e0 95 d6 bc
       0.071619436 0.012021427 0.033565693 -0.026194513
0001a0 ee b3 6b 3c e5 cf c5 bd 03 5f 9d bd 71 45 94 bc
       0.01438616 -0.09658793 -0.07684138 -0.018099518
0001b0 41 32 4b bd 60 c4 5d bc 64 d4 eb bc 49 c0 77 3d
       -0.049608473 -0.013535589 -0.0287878 0.06048611
0001c0 ee 84 cb 3d ee 5a 20 3d 8a 01 ac 3d a0 a1 33 bd
       0.09937464 0.039149217 0.08398731 -0.04385531
0001d0 0a 98 82 3d 73 2c dc 3d 2f b8 67 bd 11 c4 52 3c
       0.063766554 0.107506655 -0.056572136 0.012864129
0001e0 23 5f f1 3d cc cc a9 3d c6 f7 e7 bc 68 64 6d 3d
       0.11785724 0.08291015 -0.02831639 0.057957083
0001f0 f9 e7 c2 bb 2c 43 1f bd 76 82 89 3d b0 1e fa 3c
       -0.0059480635 -0.03888242 0.067143366 0.030532211
000200 c6 cd 4a 3d 79 1d 64 bd 57 e8 7a 3d d2 e9 80 bd
       0.049512647 -0.05569217 0.061256733 -0.06294598
000210 47 3c 7f 3d 66 8a b9 bd 34 cc b2 bd 7f 05 49 3d
       0.062313344 -0.090596005 -0.08730355 0.049077507
000220 f8 df d6 bc bf 26 92 3d d6 ca ff 3d 0f 33 b4 3d
       -0.026229843 0.071362965 0.1248986 0.08798801
000230 10 ab ff bc 2f f9 c5 3d 63 64 07 3e 18 e3 97 bd
       -0.031209499 0.096666686 0.13221888 -0.074163616
000240 2a 50 30 bd d1 99 8f 3d d6 e4 87 bc 96 c5 a9 bd
       -0.0430452 0.0701176 -0.01658861 -0.0828964
000250 dd 8c f6 3c d8 34 08 bd 76 3c b3 bd 79 0b f9 3d
       0.030096466 -0.03325352 -0.087517664 0.12160391
000260 73 07 41 3d f5 ca f7 3d 25 c3 d9 bb 63 e1 01 bd
       0.047126245 0.12099258 -0.0066455775 -0.031709086
000270 a8 2c 13 bd 06 12 4b bd 45 1b 1a 3d 8f d9 67 3d
       -0.03593126 -0.049577735 0.037623663 0.056603964
000280 58 43 ac bd 58 5a 9f 3c 3a 25 15 bd 9e 95 9a 3d
       -0.08411282 0.019452259 -0.036412455 0.075480685
000290 f6 44 f1 3c 46 fb 09 3e be 89 3c 3d ce 5f b3 bc
       0.029451828 0.1347476 0.0460298 -0.02189627
0002a0 ec 1d c5 bb ed b1 b8 3d 35 b8 3d 3d d1 15 eb 3b
       -0.00601553 0.09018312 0.04631825 0.0071742316
0002b0 8a 62 94 bd 8f 44 84 bc 85 f6 24 bd 57 31 af bd
       -0.07245357 -0.016145973 -0.04027416 -0.08554333
0002c0 eb 82 a7 bd a7 66 b4 3d 9b 43 71 3c 8e 87 36 3c
       -0.081792675 0.08808642 0.014725591 0.011140717
0002d0 c7 ae a6 bc 3a f1 94 bd ae 1e 71 3d 60 f2 35 bd
       -0.020347012 -0.07272573 0.05886715 -0.0444206
0002e0 66 ef 14 bd b4 50 03 bd df b4 2d 3d 95 ad 61 bd
       -0.03636112 -0.032059386 0.04240882 -0.05509718
0002f0 f6 b0 b0 3d 20 94 70 bd da 90 c9 bc 1e 06 d1 3d
       0.086275026 -0.058735013 -0.024605203 0.10206245
000300 95 be 21 3c 80 a3 68 bd b7 3b 9d bd d1 16 44 3c
       0.009872098 -0.05679655 -0.07677405 0.0119683305
000310 79 b4 5a bd 79 a1 9f bc 58 44 07 bd 8c 64 a6 bc
       -0.05339477 -0.019486176 -0.033024162 -0.020311616
000320 e7 04 46 3d 58 17 47 3c 23 4c c8 bb 4d 19 72 3d
       0.04834452 0.012151562 -0.006112592 0.05910616
000330 a8 48 9c bd 4a 69 14 bd 7c 63 56 bd b5 ce 64 bb
       -0.076310456 -0.036233224 -0.05234097 -0.0034913246
000340 f7 16 62 bd c5 4f 2d 3d 79 59 97 3c 72 43 21 3d
       -0.055197682 0.042312402 0.018475281 0.03937096
000350 ed 66 a0 3d 47 78 03 3e d9 7c 8f 3d ad 74 b8 3d
       0.078321315 0.12838851 0.07006235 0.09006629
000360 8f a0 a6 bd 3f 36 70 3b 2d c2 61 3c 65 20 36 bd
       -0.08136093 0.0036653427 0.013779205 -0.044464488
000370 1e 3b e9 bc 67 df 38 bb 5b 6d c7 3d 60 31 15 3e
       -0.028470572 -0.002820933 0.09737655 0.14569616
000380 93 13 8b bd 59 8c 85 bc 60 cf 9d bd 5c 66 5e 3d
       -0.06790843 -0.016302275 -0.07705569 0.054296836
000390 1a d1 9d 3d d0 01 9e bc e2 1f 37 bd 88 ba 42 bc
       0.077058986 -0.019287974 -0.04470814 -0.011885293
0003a0 f7 50 ba 3d d5 4a bc 3d 54 dc ef 3c 2c 07 a0 3d
       0.09097474 0.091939606 0.029279865 0.07813868
0003b0 7c 2c 5f bd 63 b5 86 bd 83 40 9b 3d fc 21 42 3d
       -0.054485783 -0.065775655 0.07580664 0.04739569
0003c0 93 31 6a bd 90 98 ce bc c6 f2 3a 3c af 19 28 3d
       -0.057176184 -0.025219232 0.011410421 0.04104012
0003d0 67 1a 8f 3d 5f 3a 89 bd fe f0 d6 bb a7 88 0c 3d
       0.06987458 -0.067005865 -0.00655949 0.03431001
0003e0 0a 03 29 bc 81 9a 17 bd e5 4e fb 3c 69 1b 9e bd
       -0.010315666 -0.03701258 0.030677268 -0.07720072
0003f0 6e 07 90 3d b9 9d 73 3c 87 68 46 3d 27 87 54 3d
       0.07032667 0.014869147 0.04843953 0.051886704

fc3.bias f4 [64]
000000 b1 91 91 3d 10 5c 40 3d f3 ca 5f bd 26 d4 e4 3d
       0.071078666 0.046962798 -0.054636907 0.111732766
000010 8c 9b 62 bd 18 3e 11 3d 7c a6 23 bc ad 92 00 3e
       -0.055324122 0.035459608 -0.009988423 0.12555952
000020 2d 23 58 3d 3b b7 54 bd 66 cb 3f bc a8 3e b3 bd
       0.05276792 -0.051932555 -0.011706209 -0.08752185
000030 3a 14 2f 3e 38 e9 03 bd 58 67 01 bd 30 41 23 3e
       0.1709756 -0.032204837 -0.031592697 0.15942836
000040 d6 fe 3c bc 7e 76 a9 3c 45 7c aa bc 66 0c 45 bd
       -0.011535367 0.020686384 -0.02081121 -0.048107527
000050 af db 75 3d 25 3d 7b 3d de c8 74 bd a0 d7 1c 3c
       0.06002396 0.06133761 -0.059761874 0.009572893
000060 ee 69 ae 3d f1 06 11 3d d3 4d 1f bd f9 7d e9 bc
       0.08516298 0.03540701 -0.03889258 -0.028502451
000070 e6 aa 5f bd d8 37 d1 bd 82 1e 92 3d a4 d5 fe 3c
       -0.05460634 -0.102157295 0.07134725 0.031107731
000080 21 74 3c bb 27 c4 b7 3d b6 de 77 bd 2e c8 ae 3c
       -0.0028755742 0.0897296 -0.060515128 0.021335687
000090 e0 56 d6 3d de 6b 8e bd 85 53 90 bd 14 98 8d 3d
       0.10465789 -0.06954168 -0.0704718 0.06913772
0000a0 2a 8c ab 3d d8 0f 9e bd d4 bc 95 bd 12 72 de bc
       0.083763435 -0.07717866 -0.07311407 -0.027154002
0000b0 a7 e4 31 bd c8 7a c9 bc a3 23 24 3e 4d fa d6 3d
       -0.04343095 -0.02459468 0.1602922 0.1049696
0000c0 ef 5a 85 bd 4c 25 ac bd 42 87 17 bd 27 99 08 3d
       -0.06511485 -0.08405551 -0.036994226 0.033349182
0000d0 24 a3 60 3d 1e d0 90 bd e4 86 1e bd b5 bc 3c 3e
       0.054843083 -0.07070945 -0.03870286 0.18431361
0000e0 71 f2 9b 3d d7 0f c1 bd 29 f8 34 bd 3c 96 cf 3d
       0.076146014 -0.09426849 -0.044181976 0.10136077
0000f0 c2 e4 03 bb ec 79 6f 3d b0 a4 b4 bd 7a 10 1d bc
       -0.0020125364 0.058465883 -0.08820474 -0.009586448

fc4.weight f4 [32, 64]
000000 32 f0 9d bd 93 ae 0d 3d a0 9f f3 3c eb a9 4b 3d
       -0.07711829 0.034590315 0.029739201 0.049722593
000010 d4 73 d0 3d 3a 9b 8f bd 46 4c c2 bd 11 91 3c 3e
       0.101783425 -0.07012029 -0.09487204 0.18414713
000020 1c 85 d8 bd 30 2c 40 3c c0 53 b4 bb 9a 79 e6 3d
       -0.105722636 0.011729285 -0.005503148 0.112536624
000030 ec 79 26 bd 04 bc e8 bd 04 d2 4a 3d da 9a 6b 3c
       -0.040643618 -0.11363986 0.049516693 0.014380181
000040 68 9b 30 bb 71 86 b2 3d 4d 67 c5 3d e4 e3 87 bd
       -0.0026948098 0.08717049 0.09638844 -0.066352636
000050 23 21 9b 3d dd e5 be 3c 06 5e 46 3c 6e 61 77 3d
       0.0757468 0.023302967 0.012107378 0.06039565
000060 ed fb bf 3d b5 42 90 bd 0f 66 7f 3d 7e ef de 3c
       0.09374223 -0.07043973 0.06235319 0.027213808
000070 b3 27 fc 3d 06 25 7a bc 54 39 c1 3c b8 1b 37 3e
       0.123122595 -0.015267616 0.023586906 0.17881668
000080 42 7b 81 3d 6f 19 f0 3d c4 a7 f4 3d 46 f6 d6 bd
       0.06322338 0.11723601 0.11946061 -0.10496192
000090 3c 56 96 bc 8a 2d 90 bd 6f b2 2f 3d 98 09 a5 bd
       -0.018351667 -0.07039936 0.042894777 -0.080584705
0000a0 c6 b4 b7 3d e0 a6 fd 3c f2 ab 9d bd 88 dd 0a bd
       0.08970027 0.030963361 -0.076988116 -0.033902675
0000b0 57 65 ca bd ad ff 87 3d 1c 84 0e be 6e 62 01 bb
       -0.0988261 0.06640563 -0.13917583 -0.0019742507
0000c0 b8 97 d0 3c 22 d7 ce bd 18 47 95 3d ba 37 82 bd
       0.02546297 -0.10099627 0.07288951 -0.06358285
0000d0 7f 97 c9 bd 70 0f 18 3d 70 5f 50 bd c7 05 de 3d
       -0.09843349 0.037124097 -0.050872266 0.10840946
0000e0 42 07 13 bd 86 36 e4 bd ed 1a b2 3d b9 eb c7 bd
       -0.035895593 -0.11143212 0.08696542 -0.097617574
0000f0 17 da 0a bd 6c c8 54 3e 6a 8e 2d 3b 16 b1 b7 bd
       -0.033899393 0.2077958 0.002648259 -0.08969323
000100 80 b4 5f 3d 34 59 07 bd cc 6f 67 3d 00 06 b8 bd
       0.054615498 -0.033044055 0.056503102 -0.089855194
000110 30 31 a2 bd 40 b8 4d bb 0c 53 93 bd 20 43 91 3b
       -0.07919538 -0.003139034 -0.07193574 0.0044330508
000120 a8 41 00 3d f0 c5 35 3d e0 0f f4 3c 60 82 1b 3c
       0.031312615 0.04437822 0.029792726 0.009491533
000130 90 92 81 bc e6 4a f9 3d da a1 dc 3d a8 e9 fb bd
       -0.015816957 0.12172489 0.10773058 -0.12300426
000140 90 ea d2 bd 00 d0 07 b8 3c 71 b1 3d f8 c7 85 3c
       -0.102986455 -3.2380223e-05 0.08664176 0.016330704
000150 74 3c 15 3d 10 1b b3 bc 74 cb 9d bd 22 c7 bd 3d
       0.036434606 -0.02186349 -0.07704821 0.09266497
000160 cc bf e8 bd 10 cf 76 bc c8 93 e9 bd 48 05 7e 3d
       -0.11364707 -0.015064016 -0.1140514 0.062016755
000170 f0 da 9e bd a0 f2 7d bd f6 81 93 bd 68 12 55 3d
       -0.07756603 -0.061998963 -0.072025225 0.052019507
000180 00 c6 df 3a 5c ae 27 bd 38 0f d1 bc 2a da 94 bd
       0.0017072558 -0.040937766 -0.025519952 -0.07268174
000190 34 b0 b2 3d 46 df 8f 3d 98 2c f4 bc 8e e4 98 bd
       0.08725014 0.07025008 -0.02980642 -0.07465468
0001a0 c8 8a b9 bd a0 fb 1a bc 6a 80 a0 3d 40 07 8e bd
       -0.090596735 -0.009459406 0.07836993 -0.069349766
0001b0 bc 08 bf bd 1c 39 85 3d 98 18 44 3d 90 47 0c 3c
       -0.09327838 0.065050334 0.047875017 0.008561984
0001c0 80 42 cd 3a 00 3d 06 bd 28 20 0c 3d f4 c2 51 3d
       0.0015660077 -0.032773018 0.034210354 0.051211312
0001d0 68 f2 c9 bc 84 dd f3 3d 18 e1 c5 3d 56 8d e3 bd
       -0.024651721 0.11907485 0.09662074 -0.11110942
0001e0 90 95 df 3d b8 bc e9 3d 60 49 ae bb 20 da 40 3d
       0.10917199 0.11412948 -0.0053188056 0.04708302
0001f0 20 52 61 bd e6 a5 93 bd 2c 81 36 3d 80 79 3d 3c
       -0.05500996 -0.07209377 0.04455678 0.011564612
000200 a8 c3 8e bd 42 79 a5 bd ac 53 33 3d 80 0c 9e 3c
       -0.06970912 -0.08079769 0.043780968 0.01929307
000210 60 40 e4 3d 6c 47 c4 3d 58 dc 72 bd 0a ba f9 3d
       0.11145091 0.09583935 -0.059292167 0.12193687
000220 3c 8e 62 3d 90 dc b6 3d 90 68 85 3c a8 67 6b 3d
       0.055311427 0.08928788 0.01628521 0.0574719
000230 f4 59 e5 3d 90 1a c3 3d a8 84 8e bd 14 cc 40 bd
       0.11198798 0.09526551 -0.06958896 -0.047069624
000240 80 22 77 bb e2 3c 9b bd 3a 36 86 3d c0 3f aa bc
       -0.0037709773 -0.07579972 0.06553312 -0.020782351
000250 58 92 82 bd ba e1 e3 3d 18 e8 b6 bd c0 95 f5 bc
       -0.06375569 0.11127038 -0.08930987 -0.029978633
000260 20 f9 16 bc 50 30 15 bc 78 39 aa 3d d0 d0 e1 bd
       -0.0092146695 -0.009105757 0.083117425 -0.11026156
000270 00 40 d6 b9 30 fa 78 bc 38 e5 de bd cc 62 23 3d
       -0.00040864944 -0.015196368 -0.10883564 0.039889142
000280 3c b7 70 bd f0 94 28 bd a8 7b e0 bd 32 8e d5 3d
       -0.058768496 -0.041157663 -0.109610856 0.10427512
000290 a0 5c 62 3c 00 7f c6 3c 36 09 89 3d 78 37 12 3d
       0.013816029 0.02423048 0.0669121 0.03569743
0002a0 20 4a a9 bb 94 16 63 3d 9c 0c 0b 3d 90 43 6e bd
       -0.005166307 0.055441454 0.033947572 -0.0581699
0002b0 1a fe 86 3d 1c 95 ff 3d ca ed ea bd 00 e8 af bc
       0.06591435 0.12479612 -0.11471136 -0.02147293
0002c0 1e db c4 bd 3e 76 fa bd cc 89 4d 3d 20 e6 59 3d
       -0.09612106 -0.12229584 0.05018024 0.05319798
0002d0 f2 b3 fe bd a0 e7 56 bd a0 96 66 3c d8 23 74 bd
       -0.124366656 -0.05246699 0.014073998 -0.059604496
0002e0 70 34 fe 3c e6 30 9a bd 94 85 f7 bd 20 7a 74 3d
       0.031030864 -0.07528858 -0.12086025 0.05968678
0002f0 8c ce 4e bd 40 f9 74 bc 94 5c a1 bd 60 e2 f4 3b
       -0.050489947 -0.014952004 -0.07878986 0.007473275
000300 0c e6 9a 3a 41 40 be 3d ea 12 c7 3d 53 71 cf 3d
       0.0011817827 0.09289599 0.097204044 0.10129037
000310 cc 2e eb 3d a0 3a d0 bd e0 a3 a1 bd 51 43 ae 3e
       0.11483535 -0.10167432 -0.07892585 0.34035733
000320 cc a5 10 bd 2c 74 61 3d bd b1 42 3d 6c ac 91 3d
       -0.035314366 0.05504243 0.047532786 0.07112965
000330 75 63 08 3e dc 98 aa 3d 94 58 ae 3d 74 85 51 3d
       0.1331919 0.08329937 0.08512989 0.05115266
000340 42 d0 e5 3d ff db dd bd 11 fd 2c 3d ec 27 0c 3d
       0.11221363 -0.108329765 0.04223353 0.03421776
000350 88 7f 2a 3e f7 9f 74 3d 37 53 12 bd da bb be bd
       0.16650212 0.059722867 -0.03572389 -0.093131736
000360 a0 16 65 3e a3 c7 00 bc 5a a9 4e 3e fb ad 45 3e
       0.22371912 -0.007860097 0.2018179 0.1930465
000370 02 e9 db bc 68 57 a6 bd 13 08 02 3e 25 f0 4d 3e
       -0.026844505 -0.0812214 0.12698393 0.20111139
000380 68 05 5f bd 4d e3 14 3e a2 2f 84 bd 56 58 99 bd
       -0.054448515 0.14539833 -0.06454398 -0.07487552
000390 9e 74 1e be ed ae 9c 3c 94 63 a8 3d 4f f7 08 be
       -0.15474173 0.01912638 0.08222118 -0.1337559
0003a0 4d 73 1b 3e 2c 5b 68 3d 98 30 f5 3d 88 77 be 3d
       0.15180703 0.056727573 0.11972159 0.093001425
0003b0 12 52 54 bc 72 d3 7a bd d7 1d 36 bd 89 ed 1d 3e
       -0.01295902 -0.061236806 -0.04446205 0.15422644
0003c0 a0 5a 9e bb 28 5f dc 3d a0 e5 4c 3c 1f 0c e9 3d
       -0.0048325807 0.10760337 0.012505919 0.11379265
0003d0 6d 17 b5 bd 46 1b 85 bd b6 91 ed 3d bb 62 6a 3e
       -0.08842359 -0.064993426 0.11600058 0.22889225
0003e0 3a 33 9c bd 2f 80 a4 bd 20 62 11 3e c8 b0 13 be
       -0.07626958 -0.080322616 0.14197588 -0.14422905
0003f0 b8 cb 61 3c 55 15 a1 3d 3d a2 bf 3c 50 25 1e 3c
       0.0137814805 0.07865397 0.02339279 0.009652451

fc4.bias f4 [32]
000000 45 ca 44 3d a0 9e f9 bc ac 0e 2c bd e3 76 45 3e
       0.04804446 -0.030471146 -0.04200618 0.19283633
000010 50 4a 53 3c 71 94 78 3e c5 07 0b 3d 25 4c f9 3d
       0.012896135 0.24275376 0.033942956 0.121727265
000020 34 37 15 bd 00 b2 ca 39 30 4a e8 bc c0 68 71 bb
       -0.0364296 0.00038661063 -0.028355688 -0.0036836118
000030 de 72 05 3e dc 9d 95 bd 26 08 bb bd 85 4d 66 3c
       0.130321 -0.073055 -0.091324136 0.014056568
000040 11 bf 72 3d 33 70 91 bc c4 f9 81 3e e0 3c e1 bc
       0.059264246 -0.017753696 0.2538587 -0.027494848
000050 71 c3 5d bc f3 1a 4d 3d 14 87 a5 3d 3c 37 47 3e
       -0.013535366 0.05007453 0.08082405 0.19454664
000060 9b 48 94 bd 36 ec c7 bd 6c c9 e8 bd 47 64 99 3e
       -0.07240411 -0.097618505 -0.11366543 0.29959318
000070 6e 50 1a bd 6a fb db 3d ac 93 f3 bd db dc 8e bd
       -0.03767436 0.10741313 -0.118934005 -0.069757186

fc5.weight f4 [3, 32]
000000 b9 9e b2 3e a8 79 28 be 8b 25 39 3d 27 d8 8e 3e
       0.3488672 -0.16452658 0.04520182 0.27899286
000010 a2 ff 30 3e 8e f9 88 3e 8a 26 94 3e 13 88 af 3d
       0.17285016 0.26752895 0.28935653 0.08570876
000020 51 44 69 bd 3a b2 32 be 45 04 cd bd 18 ae 14 3e
       -0.056949917 -0.174508 -0.1001058 0.14519536
000030 5d 0e c0 be de 63 8f 3d a2 45 23 bd d3 4f 54 be
       -0.37510958 0.0700147 -0.03986133 -0.20733576
000040 fe 02 a2 3d c8 f4 b6 be e9 81 e8 be 14 9d 0b 3e
       0.07910727 -0.35733628 -0.45411614 0.1363414
000050 98 31 79 be f1 a2 2d 3e df fb a1 3e b8 2d c0 3e
       -0.24335325 0.16956688 0.31637475 0.3753488
000060 dc c7 49 be 4b 51 a9 3d 8b 8d 33 bd 5c e2 36 bf
       -0.19705147 0.082674585 -0.043836158 -0.71439147
000070 99 e9 87 3d d1 57 ca 3c f3 37 ec bc 78 75 12 3e
       0.06636352 0.024700077 -0.028835272 0.14302623
000080 50 86 b5 3c b3 7c f1 bd fb fd 64 ba a5 58 be 3e
       0.022158772 -0.117913626 -0.0008735356 0.37177005
000090 96 16 04 3e 3e 94 8d 3d 96 ee a1 be c2 b1 82 3d
       0.12899241 0.069130406 -0.3162734 0.06381561
0000a0 74 1e 07 3e ef ba ef bd 6d 48 9d bc d4 c2 ab bd
       0.1319521 -0.11705577 -0.019199574 -0.0838677
0000b0 7b cc 35 3e 7a 9c 83 bd ee 03 64 bc f9 e3 50 3e
       0.17753784 -0.0642633 -0.013916953 0.20399465
0000c0 2f e5 6e 3e 18 82 48 be 9a c2 93 3e 6e 74 b5 3d
       0.23329614 -0.19580877 0.28859407 0.08860098
0000d0 e3 34 e8 bd 93 7b 97 3d 18 6c 99 be 1a 99 11 3d
       -0.11338212 0.07396617 -0.2996528 0.0355464
0000e0 91 f2 9b be 50 ff 9f 3d 1d fa 07 be 3d 00 44 3e
       -0.304585 0.07812369 -0.13279004 0.19140716
0000f0 c1 28 f8 3d dd c9 1f 3e 4f 58 89 3d 22 65 e9 bd
       0.12117148 0.15604348 0.06706297 -0.11396243
000100 8b e1 18 be 60 48 4d bd 65 d4 f0 3d 1e 4a 09 bf
       -0.14929788 -0.05011785 0.11759261 -0.5362872
000110 fa 9e b3 3d fa d5 29 bf 86 96 ec bd 47 8e c5 be
       0.08770557 -0.6634213 -0.115521476 -0.38585111
000120 09 76 e7 bd 59 22 14 3e 67 d2 33 3e 86 34 46 3d
       -0.1130181 0.14466228 0.17560731 0.048389934
000130 ae 71 37 3e 8b 27 a6 3d ce 5c 79 bc 1a 49 aa 3e
       0.17914459 0.08113011 -0.01521988 0.33258897
000140 4a 2c 20 be 6e 35 01 3f dc 14 8f 3e 1f 16 13 3e
       -0.15641895 0.5047215 0.27945602 0.14363907
000150 6b 22 40 3d 57 63 92 3c 33 78 b5 bc b1 81 0f bf
       0.046907824 0.017869635 -0.022152042 -0.5605727
000160 45 0e a9 3e 26 4a 29 be 2b ac 8f 3e f9 e0 e1 3e
       0.330187 -0.16532192 0.2806104 0.44116953
000170 de 67 82 bd 33 f5 cf 3d 59 cd 11 3e ae 1b 64 bd
       -0.06367467 0.1015419 0.1423849 -0.05569046

fc5.bias f4 [3]
000000 94 9f 14 3c 27 c5 a1 3e f1 cb 38 be
       0.0090712495 0.31595728 -0.18046547
