output/la.pth (torch, 241906 bytes, 10 tensors)

fc1.weight f4 [256, 63]
000000 7a ae 0d bd 05 64 83 bd 4f 5c 12 3c ea df bb bc
       -0.034590222 -0.064155616 0.008933141 -0.022933919
000010 f8 94 e2 bd 48 8f a8 3d c1 ff 6c 3d 80 f3 66 bd
       -0.1106357 0.08230454 0.057861093 -0.056384563
000020 27 d8 d1 bd 30 e3 8f 3c 8a 4b 90 3d a3 19 da bc
       -0.10246306 0.017564386 0.07045658 -0.026623553
000030 5b 9f c6 3d 53 df 98 bb fc c7 c8 bd be 92 f2 3d
       0.096983634 -0.004665294 -0.09803769 0.11844395
000040 ca fb a3 bd 34 5e b7 3d 40 14 70 bd a0 be c0 3d
       -0.08007009 0.08953515 -0.058613062 0.09411359
000050 fc f9 80 bd 70 f0 6d 3d 0b 94 de bd da 94 c6 3d
       -0.06297681 0.058090627 -0.10868081 0.0969636
000060 09 f5 6d bc fd 5d 94 bd 2a 97 b6 bd be 56 8c bd
       -0.014523753 -0.07244489 -0.08915551 -0.06852482
000070 5e 75 08 bc 93 9c b7 bd 06 ff 10 3d 0f 21 c6 3d
       -0.008328764 -0.08965411 0.03539946 0.09674274
000080 dd 8c b4 bd 99 7b b2 bd 19 66 74 3d 5b 69 6a bc
       -0.0881593 -0.08714981 0.05966768 -0.014307345
000090 a7 03 78 bd 9f 7a 25 3d 4c 74 8f bd 8a 5a 35 bd
       -0.06055036 0.040400144 -0.07004604 -0.044275798
0000a0 b1 a3 b5 3d f0 70 77 3d 8e 87 8a bd bd 79 c7 3c
       0.08869112 0.06041044 -0.06764136 0.024350042
0000b0 0a 2b e7 3d 21 16 91 bd 2b 69 64 3d 40 71 a3 bd
       0.11287506 -0.07084299 0.05576436 -0.07980585
0000c0 26 8a b4 3d bc 7b d4 3d e2 3a 05 3c 43 d7 a1 3d
       0.08815412 0.10375163 0.008131715 0.07902386
0000d0 0d 9b 02 3d 78 df ce bc f4 3c 61 3d e7 fb fc 3d
       0.03188615 -0.025253043 0.05498977 0.12352734
0000e0 b7 f3 63 bd ef 83 95 bd 3a 7b a8 bd bc db 9e bd
       -0.055652346 -0.07300555 -0.082266286 -0.07756755
0000f0 e5 04 42 bd 0f 22 4c bc 24 98 3e 3d aa 47 f7 3c
       -0.04736795 -0.012459292 0.04653181 0.03018554
000100 be f3 29 3d 59 fa a8 3c 41 04 b2 bd 14 32 c9 bd
       0.041492216 0.020627188 -0.086922176 -0.09824005
000110 73 96 29 bc c0 1d b5 bd 78 3c 38 bd a8 d9 e4 bc
       -0.010350811 -0.08843565 -0.044979542 -0.027935818
000120 78 d1 48 3d aa d6 6a bd 8a d3 c3 bc a6 79 18 3b
       0.04902789 -0.057333626 -0.02390458 0.0023265867
000130 38 35 cb bd 42 11 ce ba 98 6c 85 3d 6f a9 cb 3d
       -0.0992226 -0.0015721696 0.06514853 0.09944426
000140 b2 26 31 3c 53 6f cc bd fa 17 ff 3c c5 97 0d bd
       0.010812448 -0.09982171 0.031139363 -0.034568567
000150 4b 6c 87 bd 4d b0 6c 3c 1c 6f 49 bd da 64 6e bd
       -0.06612452 0.01444633 -0.049178228 -0.05820165
000160 4d 27 98 3d 1a 04 08 3a 3f fb ca bd b5 28 40 bd
       0.07429371 0.00051885995 -0.09911203 -0.04691382
000170 1c e8 73 3c b6 9a de bc c7 59 38 3d 77 58 fc bd
       0.014886882 -0.027173381 0.045007493 -0.12321561
000180 0a 63 e0 3a 12 3a df 3d 69 c2 20 bc 03 8a 86 bc
       0.001711936 0.10899748 -0.009811976 -0.016423231
000190 12 b3 c0 3c 8d d2 aa 3c e7 c3 7d 3d 3b 85 da 3d
       0.023522887 0.020852352 0.061954405 0.10669943
0001a0 9b ca a0 bd 5f c5 b5 bd f0 48 e5 bc 06 41 f0 bd
       -0.07851144 -0.08875536 -0.02798888 -0.11731152
0001b0 50 e7 56 bc 2c 7e a2 bc 30 e7 fe 3c e3 a5 79 3d
       -0.013116673 -0.019835554 0.031116098 0.060949218
0001c0 45 db 27 bd 76 8a a6 3d 1f 30 00 bd 29 93 77 3c
       -0.040980596 0.08131878 -0.03129589 0.015110769
0001d0 e9 63 b2 bd fe 03 22 bd b2 1a 83 bd 1d 1c 8d bc
       -0.087104626 -0.03955459 -0.06401576 -0.01722532
0001e0 99 19 8d 3d 1a c0 0b 3b 2b dc b2 bd a4 5f fd 3d
       0.06889648 0.0021324218 -0.087334 0.123717576
0001f0 57 dd ae 3d f9 ef dd bd 67 bb b2 3d 23 74 6a bd
       0.08538311 -0.10836787 0.087271504 -0.057239663
000200 a9 6c a4 bb 34 cf 69 3c fc 42 cb 3d 82 d5 65 3d
       -0.005017836 0.0142705925 0.09924886 0.05611182
000210 0f 66 0c 3d 51 82 96 3d 58 d7 3d 3d 71 d6 67 3d
       0.03427702 0.07349075 0.046347946 0.05660099
000220 e5 d8 a6 3c 02 d0 98 bd 8e be c8 3c 5f 1c 31 3c
       0.020367095 -0.07461549 0.024504926 0.010809987
000230 fc 7c 83 bd 88 28 c7 bd 53 9d b8 ba 1e a3 85 bc
       -0.06420323 -0.097245276 -0.0014084972 -0.016313132
000240 de 07 db bc 3d 0b c5 3d 1c 85 33 bd d7 4b c2 bd
       -0.02673715 0.09621284 -0.043828115 -0.094871216
000250 7b 7e 62 3d 62 ed b8 3d e9 bd 4a 3d 53 e3 62 3c
       0.055296402 0.09029652 0.04949752 0.013848144
000260 b5 6e a7 b9 a5 6d 93 bc 84 56 b7 bd d2 48 ef 3c
       -0.00031935205 -0.017996619 -0.089520484 0.029209528
000270 14 df 06 bd 6e da 55 3d c9 62 18 bd 9a 8a 6c 3c
       -0.032927588 0.052210264 -0.037203584 0.014437342
000280 10 96 0b 3b 47 01 08 3d 1a 7c e7 3d 66 f3 e3 bd
       0.002129916 0.033204343 0.11302967 -0.11130409
000290 26 a8 eb bd c9 a9 54 bd f1 db 95 bc 76 57 9f bd
       -0.11506681 -0.051919732 -0.018293353 -0.07780354
0002a0 28 4b 81 bd 73 30 a7 bd 59 c6 c6 bd 8a cd 39 3c
       -0.06313163 -0.08163538 -0.097058006 0.011340508
0002b0 07 88 a7 bc 76 b0 9a 3d 1e 92 b7 3c 29 80 36 bd
       -0.020450605 0.075531885 0.022408541 -0.044555817
0002c0 13 ed 6e bc 3b 90 b6 bd 06 a4 88 3d 3b 0d 69 bd
       -0.01458289 -0.089142285 0.0667191 -0.056897383
0002d0 17 76 85 3d 02 8f 35 bc e6 7f f9 3a c2 f0 cf 3d
       0.065166645 -0.011081459 0.0019035309 0.10153343
0002e0 37 1a 9e bd 5b 96 ad bc af df c5 bc 50 eb b0 bb
       -0.07719844 -0.02118986 -0.024154512 -0.005399145
0002f0 87 d4 f3 bd 88 3a 46 bd b5 15 4b bd 31 3f ff bd
       -0.11905771 -0.048395663 -0.04958125 -0.12463225
000300 ab aa 8d bd 9e ae 62 bd 7a f9 3d bd 3a 1d 4e 3d
       -0.06917318 -0.05534231 -0.046380498 0.05032084
000310 38 a1 b4 3d 2a da 11 3c 70 88 1e bd 2f a4 6f bd
       0.088198125 0.008902112 -0.038704336 -0.058506187
000320 01 0d ba 3c de 8f 49 3d 8f 41 76 3d ac 65 ee 3c
       0.022711279 0.049209468 0.060121115 0.029101215
000330 9e 7f de 3d 3d f0 54 3d a5 c0 0a 3d e9 55 21 bd
       0.10864185 0.05198692 0.033875126 -0.03938857
000340 cd 34 44 bd 9c 4a 14 bd 2e 51 b2 3d 51 2f f2 bd
       -0.047901917 -0.036203966 0.0870689 -0.11825431
000350 cd 0f bd 3c bf 66 c6 bd 7f da 90 3d 44 09 f3 3c
       0.023078823 -0.09687566 0.07072925 0.029667504
000360 fb 57 b7 3d 4e 03 d6 bd 34 5d c7 bd f6 d7 00 3e
       0.08952328 -0.10449849 -0.09734574 0.12582383
000370 72 2b d2 bd 32 2e c1 bc 88 cf f5 bd 3b ad 3e 3c
       -0.10262193 -0.023581598 -0.12002474 0.011637981
000380 ed 96 a6 3d 15 91 dd bd 24 35 61 bd e4 87 c0 3d
       0.081342556 -0.10818688 -0.05498232 0.09400919
000390 2b c6 3b 3d 09 62 97 bd 53 5d 84 3d 99 6f d3 bd
       0.045843285 -0.073917456 0.06463113 -0.1032402
0003a0 8e bf 7f bd 76 b7 f3 bd 63 b9 d3 bd 01 a0 95 3d
       -0.06243854 -0.11900227 -0.10338094 0.07305909
0003b0 8b 18 e1 bd a8 00 ca bc 06 56 db bc a4 83 82 3d
       -0.10991009 -0.024658516 -0.026774418 0.06372765
0003c0 fb c7 f3 3c d4 25 f7 bd 38 5b dd bd 96 f6 c6 3d
       0.029758444 -0.12067762 -0.10808414 0.09715001
0003d0 42 a7 94 bc f1 6c b6 bd 21 82 f9 3d 21 31 0c 3d
       -0.018146161 -0.08907498 0.12183023 0.03422654
0003e0 be 5b fa bd 62 29 bf bd 6d 7e 64 3d 46 e9 02 3d
       -0.1222453 -0.09334065 0.05578463 0.031960748
0003f0 de dc e1 bd 62 19 86 3d 5d bf 12 bd ef c1 70 bd
       -0.11028455 0.0654781 -0.03582703 -0.0587787

fc1.bias f4 [256]
000000 64 df 58 3c 62 8d b1 3d ef 4e 91 bd 71 c1 aa bd
       0.013236854 0.08669545 -0.070951335 -0.08337677
000010 d5 ee ed bd 3f c2 7f bd db 56 a6 bd ae e7 d0 bd
       -0.11617819 -0.062441107 -0.08122035 -0.102004394
000020 5c 68 85 bc 7b ea 89 3d 15 20 33 bd 6b 25 be 3c
       -0.016285114 0.06734177 -0.043731768 0.023211202
000030 7e a9 8a bc c4 e2 b4 3d 55 c5 b9 3d 1b 48 9a bd
       -0.016926523 0.088323146 0.09070841 -0.07533284
000040 5a 27 ea bc 38 3c dd bd 10 a9 a4 3d e6 b9 07 3d
       -0.028583217 -0.108025014 0.080400586 0.03313627
000050 92 32 ce bd 12 8f 00 3d 9d a5 a0 bd 8a 80 0d bd
       -0.10068239 0.031386442 -0.07844088 -0.034546413
000060 4c 3d 04 3e f6 87 68 bd 04 d3 83 3d 3c 2b 6f bd
       0.12914008 -0.056770287 0.064367324 -0.05839084
000070 b5 08 dd 3d 30 3e 40 3d f8 aa 0f bc f0 89 c4 bd
       0.10792676 0.046934307 -0.0087687895 -0.09596622
000080 d6 2b 1d bd 64 e9 c5 bd a9 85 1d bd e5 31 9f 3b
       -0.038371883 -0.09663656 -0.038457546 0.004858243
000090 84 a9 60 bd a6 82 d5 bd 25 24 96 bd 2b cd 98 bd
       -0.054849163 -0.1042531 -0.07331113 -0.07461008
0000a0 fa b9 c5 3c d9 4a cf bc 8b b2 a1 bd 1c 1a 5c 3d
       0.024136532 -0.025304245 -0.078953825 0.053735837
0000b0 fd ac 69 bd bd 82 0a 3c de a3 bd bc 78 76 00 3e
       -0.05704974 0.008454022 -0.023149427 0.12545192
0000c0 9f c1 a0 3d 4c 8e a3 3d 23 8c 9e 3c ae bf 02 3e
       0.0784943 0.07986125 0.019353932 0.12768432
0000d0 71 5c 39 3d cc 87 f9 bd c6 a8 0b 3c 06 2b a0 bd
       0.045254175 -0.12184104 0.008524125 -0.07820706
0000e0 10 15 06 bc 53 63 a7 bc 89 80 b0 3b ba 2a ec 3d
       -0.008183733 -0.020433104 0.0053864163 0.11531587
0000f0 6e 76 96 3d 1f b8 e5 bb 42 a3 d9 bc 99 8b 34 bd
       0.073468074 -0.0070104743 -0.026567105 -0.044078443
000100 ef 8c 15 3d cb 66 a9 bd 77 31 bf bd 12 1c df bd
       0.036511358 -0.08271559 -0.093356065 -0.10894026
000110 4b 07 a4 3d c3 2e 00 3e fc 1a eb 3d 60 58 03 3e
       0.080092035 0.12517838 0.11479756 0.12826681
000120 2b 3e 00 3e 0d 92 64 3d 24 e7 b9 bd dc 82 bc 3d
       0.12523715 0.055803347 -0.0907729 0.09204647
000130 2e 44 a9 3d a6 9c bc 3d 45 24 9a 3d 9e 98 d0 3d
       0.08264957 0.09209566 0.07526449 0.101853594
000140 31 d2 b2 bd 27 52 9b bd 5f 77 22 3d b0 d2 f3 bd
       -0.08731497 -0.07584029 0.039664622 -0.1190542
000150 04 55 9c 3d 33 f5 bd 3d b6 ab d9 3d 3a eb 27 3d
       0.07633403 0.09275284 0.106284544 0.040995814
000160 57 19 b3 bd d0 e5 40 3d 48 ed a9 bd 97 6c ac bd
       -0.087450676 0.047094166 -0.08297211 -0.08419149
000170 b5 ea 5e bc ba e9 53 bd a3 f2 e3 bc f4 6b bb bd
       -0.013605763 -0.05173657 -0.02782566 -0.0915145
000180 20 56 01 3e dc 4d 0e 3d 11 d3 ed 3d de 76 7c 3d
       0.1263051 0.03474222 0.11612523 0.061636798
000190 40 64 af 3d e1 0c 9f 3c 72 5a b5 bc 02 d6 09 bd
       0.08564043 0.01941532 -0.022137854 -0.03365136
0001a0 9f 03 c5 bc 19 42 0b 3d eb e6 ec 3b 77 9a 71 3d
       -0.024049578 0.033998583 0.007229676 0.0589852
0001b0 4a f7 cc 3d b2 77 65 3d c0 b9 b4 3d 09 7e a6 bc
       0.10008104 0.056022353 0.088244915 -0.02032377
0001c0 1e 95 3a bd 5b bb e1 3d 38 a7 da bd da 58 82 3d
       -0.045552365 0.11022063 -0.10676426 0.06364603
0001d0 72 58 83 3d ba 06 31 bd cd 48 c2 bd 74 40 bc 3d
       0.06413354 -0.043219306 -0.09486542 0.09191981
0001e0 2b 76 e4 bc 7c f6 d4 bd 12 f5 ef bc f3 43 a7 bd
       -0.027888378 -0.10398576 -0.029291663 -0.08167257
0001f0 62 cf 81 bd 97 f7 12 3c 5e a3 fb 3d d5 2e b3 3d
       -0.06338383 0.008970163 0.12287019 0.08749167
000200 44 3d 02 3d 7f 92 a9 3d de 48 b8 3c 28 cb a9 bd
       0.03179671 0.08279895 0.022495683 -0.08290702
000210 6d ab cc 3d d3 f5 bb 3d e4 b3 b3 bd 68 39 ac bd
       0.099936344 0.091777466 -0.08774546 -0.08409387
000220 75 a3 23 bd 2f 8d de bd 7c d4 cb 3d 27 fb 1a 3d
       -0.039950807 -0.108667724 0.099526376 0.037837174
000230 27 41 7b bc 7c c5 d9 3c e3 f3 c1 bd e6 81 69 bd
       -0.015335358 0.026583426 -0.09470346 -0.057008646
000240 66 e6 18 3d f8 c0 42 3d 41 1e 0b 3e 83 68 e9 bd
       0.0373291 0.04754731 0.1358576 -0.11396887
000250 75 78 5d 3d f0 b6 96 bd 4f 5c 0f 3c 85 36 4b 3d
       0.054069955 -0.07359111 0.008750035 0.04961254
000260 bb 99 f4 bc 25 c9 00 3e 6e 87 5d 3d 03 d3 e9 bc
       -0.02985846 0.1257673 0.054084234 -0.028543001
000270 08 a3 70 3c 80 90 9e 3c 72 3f 36 3d 5d a3 ef 3d
       0.014687307 0.019356012 0.0444941 0.11701081
000280 0b a2 bb bd a9 8b 81 3d ac b6 f0 3c d1 7b 6e 3d
       -0.091617666 0.06325466 0.02938398 0.05822355
000290 c9 69 8f bd ba 2b 81 bd 18 fa 00 3c 2c 0b ac bd
       -0.07002599 -0.06307168 0.007872127 -0.08400568
0002a0 03 70 f0 bb 44 15 04 3c 16 a7 36 3d c4 28 a3 bd
       -0.0073375716 0.008061711 0.04459294 -0.0796676
0002b0 41 2e 1b 3d 61 c4 96 bd 30 44 21 3d d2 ab 33 bc
       0.037885908 -0.07361675 0.03937167 -0.010966258
0002c0 ce 68 08 3e 9d b5 4a 3d cb f4 bf bd 05 f7 c2 bd
       0.1332123 0.049489606 -0.093728624 -0.095197715
0002d0 89 20 ca bd 8d 6e c3 bd 25 1c 7a 3d 16 79 07 3e
       -0.09869487 -0.0954257 0.061061997 0.13229784
0002e0 72 90 84 3d f5 dd de 3d 40 fc d1 3d 04 9f b7 3d
       0.06472863 0.10882179 0.10253191 0.08965877
0002f0 f7 33 f8 3d b7 4c b1 3d fe 1f a8 bd 11 cc f8 3d
       0.121192865 0.0865721 -0.08209227 0.121482976
000300 76 ea 8e 3d e9 9c 89 bd c6 bd 4d 3d 3e 4e e0 bd
       0.069783136 -0.06719381 0.05022981 -0.109524235
000310 bc 7e d4 bd 8a d8 8e 3c 9c 18 42 3d 44 8f 78 bd
       -0.10375735 0.017437238 0.04738675 -0.060683504
000320 f0 ef 94 bd 24 b4 8c bd ca 81 9f bc 54 af 92 bd
       -0.07272327 -0.068702966 -0.019471068 -0.071623474
000330 4d 1d a9 bd af 75 08 3e 5a 9b 86 bd 49 8d 55 bc
       -0.08257542 0.13326143 -0.065726 -0.013034173
000340 de 5d e8 bd 04 56 f9 bd 25 1b 49 3c fa d6 45 bd
       -0.11346029 -0.12174609 0.012274538 -0.04830072
000350 2e 3d f5 bd dc f5 56 3d 9d 53 be 3d 26 62 4f bc
       -0.1197456 0.052480564 0.09293292 -0.012657678
000360 c7 44 0f 3d 61 60 f5 bd 61 d0 54 3d 9d 31 79 3d
       0.0349777 -0.119812734 0.051956538 0.06083833
000370 19 64 ad 3c e0 83 39 3d 90 99 86 bd e7 c9 6c 3d
       0.021165894 0.04529178 -0.065722585 0.057809737
000380 2a b0 1f 3d 03 9d f5 3d f6 b4 98 3c 58 c4 e1 3d
       0.038986363 0.11992838 0.018640976 0.11023778
000390 ce 35 bd 3d fd 66 e6 bc 49 f0 ee 3d 3f 7d 22 bd
       0.09238778 -0.02812528 0.116669245 -0.039670225
0003a0 0f 46 ad bd 10 7d 4b 3d bd 39 a2 bd a5 a4 97 bd
       -0.08460628 0.049679816 -0.07921169 -0.0740445
0003b0 0b 6c 97 3d e2 db a1 3c 67 d4 2f 3d 5e fb 5f bd
       0.073936544 0.019758169 0.042927172 -0.05468308
0003c0 90 4d c3 bd 10 99 da 3d 14 33 cc 3d aa ab f9 3d
       -0.09536278 0.106737256 0.0997068 0.121909454
0003d0 de 9f 6d 3c 0d ec 72 bb 6a de 99 bc 90 a6 ef 3c
       0.014503447 -0.0037066967 -0.018782813 0.029254228
0003e0 f9 a2 ee 3d 18 67 3d 3d f7 00 8d 3d 08 10 73 3d
       0.11652178 0.046240896 0.0688495 0.05934146
0003f0 55 42 b7 3c 70 5a e1 3d 71 4c 95 bd 21 81 bf ba
       0.022370497 0.11003578 -0.07289971 -0.0014610627

fc2.weight f4 [128, 256]
000000 20 4c f7 bc f8 18 69 3c 91 76 36 3d b0 e3 bf 3c
       -0.030187666 0.014227144 0.044546667 0.023424
000010 6f af 04 3d 5f 20 a6 bb c8 89 21 bd 4f d4 24 bd
       0.03239387 -0.005069777 -0.03943804 -0.040241536
000020 59 49 08 bd 10 23 17 3d 3e 52 63 bd 5d 6e 73 bc
       -0.033273075 0.036898673 -0.055498354 -0.014857856
000030 37 44 96 b9 d0 c9 95 3c a0 8b 11 3c c0 6c 89 bc
       -0.00028661054 0.018284708 0.008883387 -0.016775489
000040 f1 12 cb 3b 84 25 43 3d 82 cf 14 3d 2b 99 39 3b
       0.0061973264 0.0476432 0.036330707 0.0028320055
000050 bc aa 6f bd 62 91 83 3d dc fc de bc 78 9f 8c 3c
       -0.058512434 0.06424214 -0.027220182 0.017165884
000060 04 41 f8 3c 9b 8a 95 bc da 8c 0c 3d 5c 87 8b bc
       0.03030444 -0.018254569 0.034314014 -0.017032318
000070 20 b3 6f bd eb 86 19 bd bc 9a e3 bb cc d9 c9 3c
       -0.058520436 -0.037482183 -0.006945936 0.024639986
000080 e4 23 1f 3d 48 a9 0a 3c cc f1 c1 3c f1 14 7d 3d
       0.038852587 0.008463211 0.023674868 0.06178755
000090 c5 3f 84 3d fe 1f c0 bc 88 80 70 bd 4f b2 bd bc
       0.064574756 -0.023452755 -0.058716327 -0.023156313
0000a0 90 3c 51 3c 83 de 0b 3d e5 c5 82 3d 80 fe 16 bd
       0.012770787 0.03414775 0.06385402 -0.036863804
0000b0 50 bb c3 3b 44 c0 ee bc d8 c5 45 bc 3c a0 4d bd
       0.005973257 -0.029144414 -0.012071095 -0.05020164
0000c0 39 e2 76 bd 5d 40 82 bd 2c 0c 2e 3d 37 d7 54 3d
       -0.060274336 -0.063599326 0.042492077 0.051963057
0000d0 76 86 1a 3d a8 34 b9 3c d1 b9 21 3d 62 a1 50 3d
       0.03772589 0.022608116 0.03948385 0.050935157
0000e0 a8 5b 16 3d 83 ee 09 3d f9 20 ca 3b d5 eb 48 bd
       0.036708504 0.033674728 0.0061684814 -0.049053032
0000f0 d8 18 93 3c d2 6c 11 3d 7a 43 6c bd 45 8a 3e 3d
       0.017956182 0.03550417 -0.05768154 0.046518583
000100 15 f2 47 bd 52 5c 3e 3d e7 3e dc 3c a7 99 4f bd
       -0.04881485 0.046474762 0.026885463 -0.050683644
000110 09 6e 8f 3d 34 0f af 3d 7b 6f 7c 3c 54 c4 a7 3b
       0.070034094 0.08547822 0.015407438 0.0051198397
000120 c9 28 53 3d 61 b1 9c 3d 0a 3e ec bb c9 1d 53 bd
       0.051552568 0.0765102 -0.007209544 -0.051542077
000130 2b 21 ab bb fd 83 66 bd f0 b7 62 3d 3a fb 34 3b
       -0.00522246 -0.056278218 0.055351198 0.0027615563
000140 e5 f1 73 bd 0d 72 33 3c 3a 67 43 3d d5 ff 42 3d
       -0.05955686 0.010952485 0.047705866 0.04760726
000150 59 c6 8c 3c cc 5c 27 3d 7a 71 57 3d cb 9e 14 3d
       0.017184423 0.040859982 0.052598454 0.03628425
000160 ed ac bf ba a2 92 47 bd a8 f8 ba 3c 33 f1 39 bc
       -0.001462368 -0.048723824 0.022823647 -0.01134901
000170 9d 81 fd 3a 8b 9f 90 bc f2 73 1d 3d c8 8a 37 3d
       0.0019340996 -0.017654201 0.038440652 0.044810086
000180 9e fd 21 3d cd 30 85 3d 91 45 61 bb b0 4a 7e bc
       0.03954851 0.06503449 -0.003437374 -0.015520737
000190 7c 4d 0e 3d 7f 44 ea bc e7 20 87 3c a1 08 29 3c
       0.034741864 -0.028597115 0.016495181 0.010316999
0001a0 d0 f1 0a bd 2a fd 25 bd 98 70 05 3d 52 35 0e 3d
       -0.033922017 -0.04052464 0.03257808 0.03471882
0001b0 67 9f 81 bd c0 4c 42 3b c8 a4 be 3c b4 c3 6b 3c
       -0.06329232 0.0029647797 0.023271933 0.014389921
0001c0 70 a3 9e bb 00 b2 43 3d b9 4a f0 bc 03 df 53 bb
       -0.0048412606 0.047777176 -0.029332506 -0.003232897
0001d0 c0 92 a0 3c f0 13 01 3c 16 64 48 bd b9 88 02 3d
       0.019601226 0.007878289 -0.048923574 0.03186867
0001e0 34 86 cf bc 88 3e 39 3c 70 76 8a 3b 9b 62 32 3c
       -0.025332548 0.0113064125 0.0042255446 0.010887767
0001f0 f0 ca 62 3d b8 d0 14 bc 36 03 59 bd 10 51 25 3c
       0.055369318 -0.009082966 -0.052981578 0.010090128
000200 ec f2 ac 3b b6 bb 86 3d ce ce 04 bd 50 b1 15 3d
       0.005277982 0.06578772 -0.032423787 0.03654605
000210 4d 2a e7 bc bd 37 fa bc 78 88 0b bc 3e 7e 04 bd
       -0.028218413 -0.030544156 -0.008516423 -0.032346956
000220 30 5a bf 3c 64 0b 87 bc 43 f2 87 3d ec e8 32 3d
       0.023358434 -0.016484924 0.06638005 0.043679163
000230 1b b5 2d 3d d9 49 9a 3c 30 97 60 3c cd 99 99 3d
       0.042409044 0.018834041 0.013707921 0.07500038
000240 97 06 16 bd 40 22 39 3d 04 18 df 3c de 77 3a bd
       -0.03662738 0.04519868 0.027233131 -0.04552447
000250 2f 2d 6f bc ed 98 01 bd a2 3c 6f bd c5 f1 71 3c
       -0.014598175 -0.031639982 -0.058407433 0.014767115
000260 32 ad c6 3c a0 b6 bd bb 85 6e 3f bd a7 0c 82 3b
       0.024252508 -0.005789593 -0.04673626 0.0039687934
000270 40 b4 5d bd f6 be eb bc d0 e4 28 bd d1 3d 3d 3d
       -0.054126978 -0.02877758 -0.041233838 0.04620153
000280 2d 87 26 bd 87 37 09 bd 66 3c 51 3d 52 35 26 3c
       -0.040656257 -0.03350022 0.05108299 0.0101445485
000290 f0 d1 8a 3c 72 33 55 bd 00 76 ab bb e4 94 2b bc
       0.01694581 -0.052051015 -0.0052325726 -0.01047251
0002a0 ff d6 b1 bc a1 94 35 bd 98 8c 7e 3d 6e 4c 6e bc
       -0.021708963 -0.044331197 0.0621458 -0.014544589
0002b0 50 82 c2 bb 4c a2 20 bd 31 92 0f 3d 2c 76 82 3c
       -0.0059359446 -0.03921728 0.03505153 0.01592549
0002c0 d8 5d 12 3b 30 5e 2b bd 9e 2c c2 bc 00 2f 1b bd
       0.0022333767 -0.04183787 -0.023702916 -0.03788662
0002d0 1f db 1e bd de 50 7b 3c 31 6c 28 bd ba ba 8c 3d
       -0.03878319 0.015339104 -0.041118804 0.06871553
0002e0 d8 b8 e7 3c 90 55 4d 3d 50 b7 54 bc 02 09 2d 3c
       0.028286383 0.050130427 -0.012983158 0.01056123
0002f0 2d 0f 52 bd 5e d5 1a 3d a1 73 1d 3d 5f 9b 3e bd
       -0.051284004 0.03780114 0.03844035 -0.046534892
000300 b1 c7 de 3c 04 bd 1e bd 28 6a c1 bc 64 d6 0b 3d
       0.02719483 -0.038754478 -0.02361019 0.034140006
000310 0b cb cb 3a 67 e0 45 3c 22 ee d8 3c 38 33 7c bd
       0.0015548182 0.0120774275 0.026480738 -0.061572284
000320 db 9c 89 3d 20 10 4e 3b 99 b6 70 bd 24 85 16 bd
       0.06719371 0.0031442717 -0.05876789 -0.036748067
000330 6e 55 5c bc a7 90 a5 3c 8c 84 88 bc 24 c7 6f 3d
       -0.013448102 0.020210577 -0.016664766 0.058539525
000340 10 d3 3f 3d f8 d0 51 3d 7c 8e 76 bb 9e 88 15 bd
       0.046832144 0.05122468 -0.0037621548 -0.03650724
000350 5d 83 53 bd 11 ac 09 3d ac cf a0 3c 90 26 fa bc
       -0.05163895 0.03361136 0.019630276 -0.030535966
000360 2b a1 32 bc 39 b4 0f bd fd 24 1f 3d d0 d8 8d bb
       -0.010902683 -0.035083983 0.038853634 -0.0043288246
000370 d6 29 c3 3a 95 d6 1c bc 26 7c e6 3a fb 4f 4c 3a
       0.0014889787 -0.009572645 0.0017584607 0.00077939004
000380 b4 c6 a4 3c b2 8c 2d bd 78 08 5e 3c 98 8c 66 3c
       0.02011428 -0.042370506 0.013551824 0.014071606
000390 87 3f 7d bc 3a b2 e1 bc c2 0a 16 3d e2 57 9a 3c
       -0.015457041 -0.027550805 0.036631353 0.018840734
0003a0 eb 92 c6 bb 48 e9 e2 bc fe fd 3c 3d 28 34 45 3d
       -0.0060599945 -0.027699128 0.046140663 0.048145443
0003b0 c8 f1 08 bd 15 80 77 bb 0b b5 c8 bc 54 8d 43 3d
       -0.033433706 -0.0037765552 -0.02450039 0.047742203
0003c0 4b ca 8e bd 29 e9 1a 3d dd dc c9 bc f4 fb b5 bc
       -0.06972178 0.037820015 -0.024641449 -0.022214867
0003d0 5c 60 cc 3c ea a9 42 bd b6 ea f5 bb 28 fe cf 3c
       0.024948291 -0.047525324 -0.0075047864 0.025389746
0003e0 c1 52 4b bd b4 9f 9b bc 7a 4d 54 3d d9 ca 32 3d
       -0.049639467 -0.01899705 0.0518317 0.04365048
0003f0 f1 c5 18 bd 51 c0 82 bc 4d bc 16 bd 53 46 3c bd
       -0.037298147 -0.015960844 -0.03680067 -0.045965504

fc2.bias f4 [128]
000000 8f d2 b9 3c cc 70 44 bd 2f ea 9f 3d 1f d2 19 bd
       0.02268341 -0.047959134 0.07808339 -0.037553903
000010 05 4d 85 3d 74 fb ea 3c b1 c7 5a 3d 33 d5 13 bd
       0.06508831 0.028684355 0.053413097 -0.036091994
000020 d6 3c 93 3d 86 8e 39 3d e3 86 52 bd 36 a2 b7 3d
       0.07189338 0.045301937 -0.05139817 0.08966486
000030 d4 5f 2d bd 52 b8 4a 3d 6e 8e 73 3d a0 bc f7 3b
       -0.042327717 0.049492188 0.059462003 0.0075603276
000040 fd b0 5d bc 9e ea 32 3d a4 5e 54 bd a8 72 5b 3d
       -0.013530967 0.04368078 -0.05184807 0.05357614
000050 c4 7f c8 3c ab 69 a5 3d b5 f2 34 3b 48 6b 21 3d
       0.024474986 0.08076795 0.0027610485 0.039408952
000060 a2 7e 6f bd de 53 4d 3d 79 2b 12 3d 78 fc 71 3c
       -0.058470376 0.05012881 0.03568599 0.014769666
000070 b9 cb 80 3d 39 9f ff bc 5e 0d 55 bd 38 65 48 bc
       0.06288857 -0.031203853 -0.0520147 -0.012231164
000080 a0 91 da 3c 58 7a 96 3d 26 62 d5 3b 3f 00 8e 3d
       0.026680768 0.07347554 0.0065119443 0.06933641
000090 16 74 6f bc b2 2c 62 3d c2 ca 1f 3d 70 7c 61 bd
       -0.014615079 0.055218406 0.039011724 -0.055050313
0000a0 bd a0 d9 bc 6c a5 2e 3d bc c2 09 3d f4 7f 23 bd
       -0.026565904 0.042638227 0.03363298 -0.039916947
0000b0 02 f1 52 bd 5e 9c 22 bd 00 94 c9 38 d0 92 65 3d
       -0.051499374 -0.039699905 9.611994e-05 0.056048214
0000c0 f2 d9 5e bd de d3 4f bd ff fa 00 bd 09 5f 19 3c
       -0.054407068 -0.05073916 -0.03148937 0.009361037
0000d0 83 3f 21 3d 8d 1b 56 3d 9b bc 42 bd 9c 3b ae bc
       0.03936721 0.05227237 -0.04754315 -0.021268658
0000e0 2d 16 61 bd 54 fc ac bc 94 d0 d6 3c 10 85 91 3d
       -0.05495279 -0.021116413 0.026222505 0.07105458
0000f0 41 71 e7 3c ff bc 49 3d 60 37 10 bd af 85 81 3d
       0.028252246 0.049252506 -0.03520906 0.06324326
000100 94 d0 de 3c 89 28 8c bd 19 94 11 bd bc 45 ef bc
       0.027199067 -0.06843669 -0.035541628 -0.029208057
000110 09 ff 21 bd 1a 05 47 3d d9 55 c9 3c 70 0f 18 3c
       -0.03954986 0.04858885 0.024577068 0.009281024
000120 e0 c1 98 bc b8 4a 1b bc 2b 8f 34 3d b5 9b 65 3d
       -0.018647134 -0.009478264 0.044081848 0.056056697
000130 4e 8e 2c 3d 80 6e 05 3d 4c 0e a8 3c cd 7d 7a 3d
       0.0421279 0.032576084 0.02051463 0.06115513
000140 11 06 bd bc 11 28 c9 3c b5 a5 7f bc b9 ac 4e bd
       -0.023074182 0.024555238 -0.0156034725 -0.05045769
000150 ad 08 b7 3d e0 44 a6 3c b7 82 5e bd 6c 97 7e bd
       0.08937202 0.020296514 -0.05432388 -0.062156126
000160 2e 5b 65 3c 45 c1 0a bd 4e 73 24 3d eb 89 12 3d
       0.01399879 -0.033875722 0.040149026 0.03577606
000170 c7 10 5c 3d d7 41 3d bd 8e 8f b4 b9 bd bd 9d 3d
       0.053726938 -0.046205368 -0.00034439232 0.07702205
000180 3b 9c 6e bd 72 d3 bf bc 57 8f ab 3b b7 89 7d bb
       -0.05825446 -0.023416255 0.0052355933 -0.003868682
000190 33 2b e5 3c 48 c2 8e 3d 8a 88 56 3c 6d 36 61 3c
       0.0279747 0.0697065 0.013094077 0.013745886
0001a0 7f 43 96 3b b6 86 1b 3d 34 4d cb 3c 62 cd 2d 3d
       0.004585683 0.037970267 0.024817087 0.042432196
0001b0 8d f4 14 3d 6f 66 c3 3b a8 16 36 3d f3 8b 35 3d
       0.036366034 0.005963139 0.0444552 0.04432292
0001c0 bc dc 25 bd 25 f9 b4 3b 59 e6 55 3c 20 df 67 bc
       -0.04049371 0.0055228644 0.013055407 -0.014152318
0001d0 fc 2c 23 bd 30 3a 86 bc 32 a1 48 3d f3 e6 7c 3d
       -0.039837822 -0.016385168 0.048981853 0.061743688
0001e0 ae b1 89 3c c1 1e 34 bd 6b 2d fa bc 23 55 94 3c
       0.016808357 -0.04397464 -0.030539235 0.018107003
0001f0 90 1c ba 3d 80 82 75 3c d5 7c 23 bd 2a 75 2a bd
       0.09087479 0.014984727 -0.03991397 -0.041615643

fc3.weight f4 [64, 128]
000000 cc 07 14 3d 66 1e 82 bd 0e 74 b6 3d 0c 6f 61 bd
       0.03614025 -0.06353454 0.089088544 -0.055037543
000010 db d7 06 3d 06 46 1c 3d ae 99 20 bd b0 8f 70 3d
       0.0329207 0.038152717 -0.03920906 0.05873078
000020 a1 d8 3c bc 41 25 9d bd fb d5 87 3c c1 2c 9c 3c
       -0.011526258 -0.07673121 0.016581526 0.01906431
000030 85 57 1b bd 9e 88 0e bd 70 10 93 3d a9 39 b3 bd
       -0.037925262 -0.034798257 0.071808696 -0.08751232
000040 3c c9 9c bc b4 9c 4c bd 32 05 47 bd 46 e8 6f 3d
       -0.019138925 -0.04995413 -0.04858894 0.058571123
000050 14 23 8c bb 11 10 a8 bd ea f0 c8 bd 94 e2 3a bd
       -0.0042766426 -0.082061894 -0.09811576 -0.045626238
000060 90 71 a2 bd b4 5c 57 3d 77 6c 50 3d 4a 88 f9 bc
       -0.079318166 0.052578643 0.05088469 -0.030460496
000070 d1 30 13 3d cd e3 34 bb 56 ad e2 3c b6 8f 4a bd
       0.035935227 -0.00276016 0.027670544 -0.04945346
000080 8f fc 33 3d 8b 7b 08 3d 69 e5 75 3d 46 9b 13 3e
       0.04394203 0.033320945 0.060033236 0.14414701
000090 db d1 a4 bd 7e a3 7f bd 1d 4a 8e 3d e4 ce e8 3c
       -0.08047839 -0.062411778 0.0694773 0.028418966
0000a0 7d 27 aa 3d ad f2 a8 3c 68 b7 12 bd 5f 05 56 bd
       0.08308313 0.02062353 -0.03581944 -0.052251216
0000b0 7f 6b 81 3d e5 b7 93 3b 97 21 a9 bd 3c bd e5 3c
       0.063193314 0.004508006 -0.0825836 0.028044336
0000c0 fd 8a 03 bd e4 de 03 3d 3d b0 39 3d 23 b5 61 bd
       -0.03211497 0.032194987 0.04533409 -0.055104386
0000d0 35 35 40 bd 00 97 5d 3d 8c da 81 3d 4c 93 c6 3c
       -0.046925742 0.054099083 0.06340513 0.024240158
0000e0 96 30 c5 bc 41 fa 6b 3b 42 8e 59 3d fd be a7 3b
       -0.02407102 0.0036007317 0.053114183 0.005119203
0000f0 c3 87 d7 bc b1 5b d0 3d a6 24 d4 3c a3 e0 69 bd
       -0.026309853 0.10173739 0.025896382 -0.057098996
000100 b4 2f 2b bd dc 2a b3 bc 05 83 72 3c 0e 6a 6e 3d
       -0.04179354 -0.021871023 0.014801745 0.05820661
000110 4c 65 a7 bd 13 cb 43 3c 64 f1 3b 3d f4 2e 7b 3d
       -0.08173618 0.011950272 0.045884505 0.061324075
000120 ce db 8d bd 7c 89 a7 3d e1 c5 9a bb 03 e0 76 bd
       -0.0692669 0.0818052 -0.004723296 -0.060272228
000130 b9 44 8e 3d b0 62 03 bd a4 34 9b 3c 46 64 19 bd
       0.069467016 -0.032076538 0.018946 -0.037449144
000140 78 b2 39 3b 23 e9 8d bd f5 d3 a3 bc eb 4d ba 3c
       0.0028335135 -0.06929233 -0.01999853 0.022742232
000150 46 6f 08 bb 1c df ae 3d 4a 77 af 3b 85 92 a7 3c
       -0.0020818277 0.085386485 0.0053547965 0.020455608
000160 a4 65 a2 3b 88 eb 0b 3e fc a5 93 bd 97 fb c9 3d
       0.004955964 0.13664067 -0.072093934 0.0986244
000170 2a 51 a8 3c 1a f8 44 bc d4 e7 29 bd bf ed c1 bd
       0.020546515 -0.012022043 -0.041480854 -0.094691746
000180 8d b1 78 3d 58 72 b3 bc 03 6b 7f 3d 8d e1 82 3d
       0.0607162 -0.02190511 0.062357914 0.06390677
000190 18 56 a9 bd 38 b3 ac bc a8 c4 9e 3d 06 f1 8e 3d
       -0.08268374 -0.021081552 0.07752353 0.06979565
0001a0 ac 42 18 bd 68 0d dc bc e4 cf 6b 3d 99 04 84 bd
       -0.03717296 -0.026861861 0.057571307 -0.064461894
0001b0 c7 92 88 3b 09 78 8b 3d 12 ae 69 3d 3b 49 99 3d
       0.004167888 0.06810004 0.057050772 0.07484671
0001c0 62 a5 87 3d 50 e2 4c bb fa cf ab 3d eb ef 82 bd
       0.06623341 -0.0031262822 0.08389278 -0.06393417
0001d0 0b 36 a6 bc 1c b7 3b bd bb 56 1d 3d fd db c0 bc
       -0.020289442 -0.045828924 0.03841279 -0.023542399
0001e0 57 12 fb bc 44 af b7 bc 64 be 80 bd 11 7b 88 3d
       -0.030648394 -0.02242244 -0.06286314 0.06664098
0001f0 07 15 cf bd 69 39 41 bd 1a 19 61 b8 37 8a e0 3d
       -0.101114325 -0.04717389 -5.3667558e-05 0.109638624
000200 c3 1d 77 bd ff fb 28 bd 58 19 eb 3b 53 54 8d bc
       -0.060331117 -0.041255947 0.007174652 -0.017252123
000210 17 1a eb bc 0e ed a9 3c b8 ae a5 3c f2 2f 27 bd
       -0.028698964 0.02074292 0.020224914 -0.04081721
000220 52 05 a7 3d 78 d4 cd bc 6f e9 73 bd f8 58 17 3d
       0.08155312 -0.025125727 -0.05954879 0.03695008
000230 29 d2 3e 3c 01 9f 29 bd 12 ae 87 3d 45 ef 97 bc
       0.011646786 -0.041411404 0.06624998 -0.01854671
000240 62 98 df bb f2 14 16 bd 60 45 8b bd 4e f3 81 3c
       -0.0068235854 -0.03664107 -0.068003416 0.015863087
000250 d6 cc b5 3c 5d dc 0d 3c 9c 0d c1 bb 89 c9 eb ba
       0.0221924 0.008658496 -0.005891515 -0.0017989139
000260 2c f2 85 3c 2c c4 32 3c a1 92 5e bd 78 5e 06 bd
       0.016350828 0.010911029 -0.054339055 -0.032804936
000270 af d6 98 3d 04 67 f5 bc 42 e4 c7 3b 85 03 ab 3d
       0.07462823 -0.029956348 0.0061002085 0.08350281
000280 d4 52 4f 3d ee 72 fb bc 15 ea 5c bd bd 2c 9c bd
       0.0506161 -0.030694451 -0.053934176 -0.07625721
000290 5c 09 78 3d a2 b3 5e 3c a5 42 5b 3d 57 36 ac 3b
       0.0605558 0.0135926325 0.053530354 0.0052555013
0002a0 1b 1e 71 3c 48 30 b4 bd 8c 86 56 bd 42 03 9d bd
       0.01471665 -0.087982714 -0.052374408 -0.07666637
0002b0 64 f4 b9 bc 95 2f 85 bd cb 6a 57 3d 4b 43 98 bd
       -0.022699542 -0.06503216 0.05259208 -0.0743471
0002c0 a5 db 8b ba 9e bb 88 bd fb d8 2f bd 97 79 68 3d
       -0.0010670318 -0.0667641 -0.042931538 0.056756582
0002d0 df 9f 66 3d e2 fe a9 bd d0 0a 4f bd f8 2b 62 bd
       0.05630481 -0.08300568 -0.05054742 -0.055217713
0002e0 12 bc fc bc 16 ab af 3d c4 72 10 bc 87 68 6b bd
       -0.030851398 0.08577554 -0.008816425 -0.057472732
0002f0 c5 8b 73 bd ac bb a6 3d 9c bd f5 bc b4 ff 2e bd
       -0.059459466 0.08141264 -0.02999764 -0.042724326
000300 fe b3 b4 3d 6d 3c 7c bd 5e 45 12 3d 98 1c a8 3d
       0.08823393 -0.061581064 0.035710685 0.08208579
000310 58 d6 6c bd 35 67 25 bd 81 b3 07 3d fb 65 6b 3c
       -0.0578216 -0.04038163 0.033130173 0.014367576
000320 62 5e d1 bc 7e c2 88 bd bc 00 93 3d 6d 59 88 3d
       -0.0255577 -0.066777214 0.071778744 0.066576816
000330 17 e8 9f bc 70 b1 a5 3c 1d a9 36 3d c9 99 81 bc
       -0.019519849 0.02022621 0.044594873 -0.0158204
000340 42 4d fb 3c 65 18 8b 3c a9 66 f7 bc 53 25 9c bd
       0.030676488 0.016979406 -0.03020032 -0.076243065
000350 f9 df 23 3d 74 8f 43 bd e1 44 ef bc 34 a3 a3 3d
       0.04000852 -0.04774423 -0.029207649 0.07990113
000360 d4 8b 9e 3d 13 f8 8b bc 5a 57 8f 3d 1b 76 2b 3b
       0.07741514 -0.017086064 0.06999083 0.0026162926
000370 7b 3d 5f b9 f5 c2 8f bd cd 45 81 bd b0 a5 26 bd
       -0.0002128984 -0.07019607 -0.063121416 -0.040685356
000380 4e 0d 2f 3d df e9 b4 3d a4 fc 8a 3d 51 62 38 3d
       0.042737298 0.0883367 0.067864686 0.045015637
000390 db 00 10 39 fe 86 99 bd 66 63 78 3d 15 68 2c 3d
       0.00013733229 -0.07496451 0.06064167 0.042091448
0003a0 68 a8 16 bd 7e 2e b1 3c 2e 9c 93 3d f1 f5 7c bd
       -0.0367817 0.021628615 0.07207523 -0.061757986
0003b0 d0 ce 81 bc dc d5 fa 3c 9b a2 a0 3d 89 32 65 3d
       -0.015845686 0.030619554 0.078435145 0.055956397
0003c0 e8 2b 44 3d f9 a6 6c 3d de 78 1b bd e6 47 a0 bd
       0.047893435 0.057776425 -0.037957065 -0.078262135
0003d0 c9 41 3c bd 56 20 24 3d 5c 0c d5 bb b1 61 72 3d
       -0.045961175 0.0400699 -0.0065017175 0.059175197
0003e0 50 8e b3 3c c9 f6 89 bd a5 7d 3d bd e4 c5 4a bd
       0.021918446 -0.06736524 -0.046262402 -0.04950513
0003f0 05 44 96 3c d9 ca a5 bc d2 18 f8 bc ad d7 78 3d
       0.018342981 -0.020238327 -0.030285273 0.06075256

fc3.bias f4 [64]
000000 6b 93 e2 bc 5a ff a9 bd e1 75 ab 3d 15 9e 05 3d
       -0.027658185 -0.083006576 0.08372093 0.032621462
000010 59 11 ac bc 45 d7 4b bc 62 d0 19 bd 03 25 a0 3d
       -0.021004366 -0.012441461 -0.037552245 0.078195594
000020 28 b8 6a bd ef 3c 03 bd 85 ee d1 3d 92 a9 c1 3c
       -0.05730453 -0.032040533 0.10250572 0.023640428
000030 f6 1c 42 3d 4e 08 87 bc 09 71 51 3e 6f c7 19 3e
       0.0473909 -0.016483452 0.20453276 0.15017484
000040 2e e0 8a bb e7 d9 65 bd 74 1e c7 3d a3 63 a7 bd
       -0.00423815 -0.05611601 0.09722605 -0.08173301
000050 a1 9c 81 bd 3e fa ae bd 5f 96 7a 3d 4e f7 ed 3c
       -0.06328703 -0.08543824 0.06117856 0.029048588
000060 d1 d6 8f 3d 1b 9b 93 bd ea 96 d1 3b c7 4b 6a 3d
       0.07023395 -0.072073184 0.006396164 0.057201173
000070 d7 2c 0d 3d f0 9d 85 bc dc 78 11 bd 85 82 b0 bd
       0.03446659 -0.016310662 -0.03551565 -0.086186446
000080 eb 1d 1f 3e b8 23 48 bc d2 6f 4a bd a5 02 ba 3d
       0.15538757 -0.012215547 -0.049423046 0.09082536
000090 6e 2a 25 bd e0 8d 93 3d e7 42 47 3d 0c a7 74 3d
       -0.040323667 0.07204795 0.048647787 0.05972962
0000a0 24 ab d4 bb 84 89 bd 3d b7 55 af 3c db 40 4c bd
       -0.006490128 0.09254745 0.021403177 -0.04986654
0000b0 25 4a aa 3d 67 1e f9 3d 27 6f 62 3d 0d fe 17 bc
       0.08314923 0.12164002 0.055281784 -0.009276879
0000c0 08 eb 40 3e 1a e3 f2 3c fe 11 df 3d 9b b4 a7 bd
       0.18839657 0.029649306 0.108921036 -0.08188745
0000d0 0b 86 8f bc e9 22 2d bd 9b 5e c3 3d 02 3e c2 3d
       -0.017519971 -0.04226962 0.09539529 0.09484483
0000e0 bb e1 37 3d 0f bb 11 3d 40 97 10 3d 53 86 4a 3d
       0.044893008 0.035578784 0.035300493 0.049444508
0000f0 24 95 80 bd 7f ba 97 bd a1 c3 cd 3d 66 9e ae bc
       -0.06278446 -0.07408618 0.10047079 -0.021315765

fc4.weight f4 [32, 64]
000000 b8 55 4c bd 62 d6 89 3d 72 cc fc bd d0 b9 19 bd
       -0.049886435 0.067303434 -0.12343682 -0.03753072
000010 da a7 f2 bd ae 51 f8 bd e0 73 be bc 24 c9 18 3d
       -0.118484214 -0.12124954 -0.023248613 0.037301198
000020 70 df 64 bd 16 21 f2 3d 10 5a bd 3c c2 a1 88 bd
       -0.05587715 0.11822717 0.023114234 -0.06671478
000030 78 a3 b5 bd dc 93 ee 3d 2c f8 5e bd 50 73 ea bc
       -0.0886907 0.11649296 -0.054435894 -0.028619438
000040 ac ce 10 bd 60 30 f5 bc 58 fe 89 3d 64 ab 14 3d
       -0.035353348 -0.029930294 0.06737965 0.036296263
000050 92 97 c4 bd f8 31 07 3d c0 5e 60 3b 94 88 37 3d
       -0.09599222 0.03300664 0.0034236163 0.044807985
000060 f6 11 fd 3d 16 ac bd bd 5e 5e ff bd 70 b1 d8 bd
       0.123569414 -0.092613384 -0.12469171 -0.105807185
000070 d2 bc a2 3d b0 5a 02 3c 18 f2 cc 3d 8c 74 40 3d
       0.07946171 0.007956192 0.10007113 0.046986148
000080 c8 2d d2 bc 4c 05 9e 3d 56 4a e0 bd 00 5b fb bd
       -0.025656596 0.07715854 -0.109516785 -0.12273216
000090 c0 89 03 bd 98 75 b1 bd 9c 54 be 3d 78 cf d7 bc
       -0.03211379 -0.08665007 0.09293482 -0.026344046
0000a0 80 81 f3 3b 30 fb e8 3d 34 c4 35 bd 90 2f 18 3c
       0.007431209 0.11376035 -0.044376567 0.0092886835
0000b0 10 7c b2 bc 2c d0 b1 bd ac c9 d5 bd 00 0e b7 bb
       -0.021787673 -0.08682284 -0.104388565 -0.0055863857
0000c0 2a e7 ea bd 70 c6 4a bc 54 3a ce bd 80 75 a7 ba
       -0.11469872 -0.012376413 -0.10069719 -0.0012776107
0000d0 70 5d ec bd 90 f4 c3 3c 70 fc 33 bd 90 d9 6a bc
       -0.11541259 0.023920327 -0.043941915 -0.0143340975
0000e0 90 a8 23 bd 90 6d e0 3d 78 b2 d8 bc 40 19 5f bc
       -0.039955676 0.109583974 -0.026452288 -0.01361686
0000f0 00 9f fb bb 6a d3 a8 bd 7a b8 92 bd 88 06 de 3c
       -0.0076788664 -0.08243449 -0.07164092 0.027102724
000100 70 24 4b be 04 5f ca bd 78 ea 0b 3d 9b 5a f3 bd
       -0.19838119 -0.09881404 0.034159154 -0.11882516
000110 fc ab bd 3d 59 7f f9 bd d7 d9 c7 bd 38 33 16 3e
       0.09261319 -0.12182493 -0.097583465 0.14667976
000120 f8 e4 97 bc 0f dd 0f 3e d5 39 1d 3e c4 f3 39 3e
       -0.018541798 0.14049171 0.15354092 0.18159395
000130 d8 81 02 be be 2f ee 3d 4e fc 96 3e a9 05 4a 3e
       -0.12744844 0.116302 0.29489368 0.19728722
000140 00 09 8a bb c8 8f c6 3b f4 1b c0 3d 62 52 a7 bd
       -0.0042124987 0.0060596205 0.09380332 -0.0817001
000150 4a b1 c2 bb 28 c1 f8 bc 6d 2b 54 bd 82 84 1f be
       -0.0059415447 -0.030365542 -0.051799227 -0.15577891
000160 d6 fa 11 bd 3c 14 75 3d 34 d6 2b be 5b ba f5 bc
       -0.035639606 0.05983375 -0.16780931 -0.029996088
000170 96 bb fc bc b8 a8 6d bd 94 dd a1 3d d6 d8 8e bd
       -0.030851167 -0.05802223 0.07903591 -0.06974952
000180 99 1b c5 3c fc 9b 9f 3d a0 d0 06 3c b4 d3 3f 3e
       0.024061011 0.077934235 0.008228451 0.18733102
000190 e3 e9 d4 3d fd ae e3 3c 48 70 c0 3c c3 f5 02 3e
       0.10396173 0.027793402 0.02349104 0.12789063
0001a0 bb 81 11 be 75 a2 41 bd 6d 89 ce bd e4 11 fd 3d
       -0.14209644 -0.04727407 -0.10084806 0.12356928
0001b0 61 78 fc 3d 6d 81 2b 3e 68 8d c3 bd 8b 02 ac bd
       0.12327648 0.16748591 -0.095484555 -0.083989225
0001c0 67 f8 8a 3e 70 6b 35 bd 3b ef 00 bd b8 ff 61 bd
       0.2714264 -0.044291914 -0.031478148 -0.055175513
0001d0 68 c2 ad bc d8 55 a0 3c 45 51 d7 bd 7a 3a 00 3e
       -0.021210864 0.019572183 -0.10513548 0.12522307
0001e0 92 da 9f bd 22 b8 09 ba f0 89 c1 bd 2d 46 21 bd
       -0.07805361 -0.0005253573 -0.094501376 -0.039373565
0001f0 dd 09 e7 3d a0 02 7b bc 1f a8 66 3e ad 2e ed 3d
       0.11281178 -0.01532045 0.2252507 0.11581168
000200 48 0c 5c 3d 7c 5e f8 3d 16 ff fd 3d 1c e3 9b bd
       0.05372265 0.121273965 0.124021694 -0.07611677
000210 f8 6b 90 bc a0 64 05 bd be 5e fd bd dc f0 3d bd
       -0.017629609 -0.032566667 -0.12371586 -0.04637228
000220 e8 db fb bc 70 0a 8b 3c 3e f4 cd 3d 10 41 e7 3c
       -0.030744508 0.01697275 0.10056351 0.028229266
000230 88 1e c0 bd 50 fb 72 3c 90 ab eb bc 36 d4 bc bd
       -0.093808234 0.014830425 -0.02876833 -0.092201635
000240 c0 16 75 3b b0 1d 6d bd f0 7e e7 bc e0 cb d3 3b
       0.0037397593 -0.05788964 -0.02825877 0.006463513
000250 d4 ce 37 bd 28 a4 ca bc b0 9b 3f bc 48 3d e8 bc
       -0.04487498 -0.024736479 -0.011694834 -0.028349534
000260 c0 27 b4 bd ca de 8a 3d 00 3f 4e 3d 30 09 c6 3d
       -0.08796644 0.06780775 0.05035305 0.09669721
000270 98 e3 6f bd 1e ff ba bd fc bd fb 3d 46 9a ec bd
       -0.05856666 -0.09130691 0.12292096 -0.11552863
000280 16 cc f6 bd d0 34 39 bc 00 10 94 39 72 f4 cb bd
       -0.12050645 -0.011304095 0.0002824068 -0.099587336
000290 10 d1 a5 bc 90 0b 6f 3c 52 2b b9 bd 90 44 93 3c
       -0.02024129 0.014590159 -0.09041466 0.01797703
0002a0 60 96 5f bd ea c9 bb 3d 20 7e 84 3c 60 e5 23 bd
       -0.05458677 0.091693714 0.016173422 -0.04001367
0002b0 94 dd e7 bd 40 ca 6c bd 6c dc e3 3d 2c 8a 06 3d
       -0.113215595 -0.057810068 0.111260265 0.032846615
0002c0 a6 3f c7 3d ce b7 88 bd b8 8c d1 3d 68 9b b7 3c
       0.09728937 -0.06675683 0.10231918 0.02241297
0002d0 4c 9f f1 3d c0 0f d4 bc 50 de 16 bd 84 06 4d 3d
       0.117979616 -0.025886416 -0.036833107 0.050055042
0002e0 3a 22 fb 3d 60 4d 23 3c e0 9c cd 3c 80 ab d1 bb
       0.122623876 0.009967178 0.025099218 -0.006398618
0002f0 e8 90 e4 bc 18 d1 f6 bc 88 7a 70 bd 00 f8 e4 b9
       -0.027901128 -0.030129 -0.058710605 -0.00043672323
000300 bc 18 9f 3d c3 48 a7 3d 42 c0 87 3d a7 d3 42 3d
       0.077683896 0.08168175 0.06628467 0.04756513
000310 e0 6e 91 3d 88 c0 3f 3d ab 1d f7 3d da 7c b6 3d
       0.07101226 0.04681447 0.120662056 0.08910532
000320 90 e8 4e bc 90 ee 58 3c 17 a6 9c 3d 04 78 e5 3c
       -0.012628689 0.0132404715 0.076488666 0.02801133
000330 d4 a6 70 3d 2a e8 c5 3d 83 18 90 bc 0f ad 59 bd
       0.05875285 0.096634224 -0.017589813 -0.053143557
000340 28 0e d3 bc d7 25 cf 3d 87 25 8d 3d 80 50 1a 3d
       -0.025763586 0.10114639 0.068919234 0.037674427
000350 46 3e b6 3d 38 70 8d 3c 75 a4 fb 3b c0 39 35 3e
       0.088985965 0.017265424 0.007679517 0.17697811
000360 b1 54 f1 3b 52 69 f8 bd 9a fa 1b 3e f8 47 96 bd
       0.0073648323 -0.12129463 0.15232316 -0.07337946
000370 54 47 93 bb e2 98 f4 bd c8 fc 7a 3d 2b 59 a1 bd
       -0.004494587 -0.119432226 0.061276227 -0.078783356
000380 0f 4e 20 bd 08 7d 63 bd 7c c1 0e 3d 0b cc ac 3d
       -0.039136942 -0.05553916 0.03485249 0.084373556
000390 69 2e 8c bd 77 2e c1 3c 40 2a 91 3b c3 9d 14 3b
       -0.068447895 0.023581726 0.0044300854 0.002267704
0003a0 8f 6f 0a bd bd d6 9e 3d 02 9d 2e bd 73 ae 18 bd
       -0.033797797 0.07755802 -0.042630203 -0.037275743
0003b0 d9 d2 04 bd d5 dc c8 bd 63 95 48 3d 28 8c a7 3c
       -0.032427642 -0.09807745 0.04897059 0.020452574
0003c0 59 f4 83 bd 3e 85 c9 bd 9c c1 87 bd 7a c7 d9 3d
       -0.0644309 -0.09839867 -0.06628725 0.1063375
0003d0 d2 6c 81 bd 90 ce 5d bc b9 fa b4 bd 89 46 9f 3d
       -0.06319584 -0.013538018 -0.08836884 0.077771254
0003e0 5b 2c 41 3b e7 cc 94 bc 50 a2 59 bc a3 9e 5f 3d
       0.00294759 -0.018164111 -0.013283327 0.054594647
0003f0 7e 14 a0 3c 00 82 2c 3d d6 cf 72 bb 98 b0 61 bd
       0.019541021 0.042116165 -0.003705015 -0.055100054

fc4.bias f4 [32]
000000 c0 08 e4 bb a3 d8 a2 3e ac a2 7e bd ec b5 51 3d
       -0.006959051 0.31805906 -0.062166855 0.051198885
000010 c2 d6 f5 bd a4 ef 0d bd f4 ca 4c 3e 0e e1 f8 bd
       -0.120038524 -0.034652367 0.19999295 -0.12152301
000020 f5 e6 77 3e f1 08 aa 3d f3 a3 98 bd 5a 4c d1 bd
       0.24209197 0.08302487 -0.07453146 -0.10219641
000030 55 ee dd 3d 8d b7 a5 3e 73 1b c0 3c 50 b6 2d bc
       0.10836474 0.323666 0.023450589 -0.010602549
000040 20 a0 9d bb a2 71 8a bd 7d 67 ae bd c9 98 31 3e
       -0.004810348 -0.06759955 -0.085158326 0.17343439
000050 08 e0 2a bd 36 d9 92 3d d8 98 38 bd cf 23 d4 bd
       -0.04171756 0.07170336 -0.04506764 -0.103583924
000060 0b a9 b2 3d 03 c7 1e be ca d2 fc 3d cc e6 68 3e
       0.08723649 -0.15505604 0.12344892 0.22744292
000070 22 d0 34 3e c0 77 3d bd b8 b4 e6 3d 50 46 27 bd
       0.17657521 -0.04625678 0.11264938 -0.04083854

fc5.weight f4 [3, 32]
000000 1a b0 8f bd bc b9 1f bf 51 d8 2c 3e 42 31 92 3d
       -0.070160106 -0.62392783 0.16879393 0.071383014
000010 0a 99 18 3d d2 28 18 be 90 ac 8a be 4c 71 df 3d
       0.037255324 -0.14859322 -0.2708478 0.109102815
000020 1d 0f c2 3e 3c b2 a4 3e c5 ce dc bc 43 f9 bf bc
       0.37902156 0.32167232 -0.026954064 -0.023434287
000030 ec 1b 3c be a4 c3 d4 be b7 d6 ac bd a3 c3 bd bd
       -0.18370026 -0.41555512 -0.08439391 -0.0926583
000040 30 cc e1 bd a0 7d 2b 3e ac ac 14 3e 04 ad e8 be
       -0.11025274 0.16747141 0.14518994 -0.454445
000050 93 93 2e be 54 00 52 3c 63 4c e2 bb fb 87 3f 3d
       -0.17048483 0.012817461 -0.0069060787 0.04676054
000060 33 ca 1b 3e cb 92 90 3d cc d6 78 be 96 ba cd 3e
       0.15213852 0.070592485 -0.24300689 0.40181416
000070 db 7a 12 3f 35 15 2f 3e bb 67 4b 3e 21 1e 06 bd
       0.5721871 0.17097934 0.19863789 -0.032743577
000080 28 42 a7 bd e3 75 d3 3e 8c 6b 63 bc 95 fe 67 be
       -0.08166915 0.41300878 -0.013880622 -0.22655709
000090 97 5b 95 3e 53 97 16 be cd 14 09 bf 3a 98 80 bd
       0.2917144 -0.14706163 -0.53547364 -0.06279035
0000a0 61 44 77 3e 42 cf a1 be f0 50 47 3d 2a 59 88 3d
       0.24147178 -0.31603438 0.048661172 0.06657632
0000b0 bb 24 d7 bd 6b 6e 69 3e 84 b1 26 3c 47 c4 bd 3d
       -0.10505053 0.22796027 0.010174159 0.092659526
0000c0 5b bf 0c 3e a3 12 6e 3d d9 ea ce bd 17 aa 02 3f
       0.13744871 0.058123242 -0.101033874 0.51040787
0000d0 92 d8 50 bd 05 2b 94 be 97 b2 0b be 98 77 98 bd
       -0.050987788 -0.2893907 -0.13642345 -0.07444686
0000e0 c3 ee 82 3e e1 d8 48 3d 62 22 d3 3d e8 ab 50 3c
       0.25572786 0.049034957 0.103092924 0.012736298
0000f0 f3 0e f8 bd 15 36 2f 3d d5 98 87 be 04 9d df bd
       -0.12112226 0.042776186 -0.2648379 -0.1091862
000100 ae 10 08 3e 79 88 69 3e 0f c7 e2 bc 07 3e 3a be
       0.13287613 0.22805966 -0.02768281 -0.18187724
000110 2a 12 80 be 7b cb 1a 3e dd 02 39 3f 35 cd b7 3c
       -0.25013858 0.15116684 0.72269994 0.022436718
000120 f7 60 ea be a9 22 e7 bd 2f 83 28 be 40 64 03 3e
       -0.45777103 -0.11285908 -0.16456293 0.12831211
000130 12 a9 c7 3d 0e 09 e3 3e f5 e1 ab 3d 88 d4 97 bd
       0.097490445 0.44342846 0.08392707 -0.07413584
000140 78 5e 7c 3d d1 94 1f be 88 17 fc 3c 23 83 23 be
       0.06161353 -0.15584113 0.03077294 -0.15967993
000150 df 31 81 3d 50 13 86 3e 75 a1 07 3e 03 9b 16 3e
       0.0630834 0.2618661 0.13245185 0.1470757
000160 73 ea 7d be 3d e1 90 bc 0e 71 37 bd 13 60 e2 be
       -0.24796467 -0.017685527 -0.04478555 -0.44213924
000170 71 31 18 bf 01 5e a8 3d b0 e2 da 3d 93 2d 3f be
       -0.5945044 0.08221055 0.106877685 -0.18669729

fc5.bias f4 [3]
000000 06 99 98 be 28 ce 1b be 91 3e 3d 3e
       -0.29804248 -0.15215361 0.18480898
