output/lc.pth (torch, 218162 bytes, 10 tensors)

conv1.weight f4 [6, 3, 5]
0	0x3efee09a	0.49780732
1	0x3ed3a6b9	0.41338137
2	0x3ec7f06c	0.39050615
3	0x3ec3a3bd	0.3821086
4	0x3eda2e00	0.4261322
5	0x3ef9a919	0.48761824
6	0x3efd92e3	0.49526128
7	0x3d97f544	0.074198276
8	0x3eff3f7b	0.4985312
9	0x3e32ec29	0.174729
10	0x3e42bf6a	0.19018331
11	0x3dad9c29	0.08477051
12	0x3d7980dd	0.06091391
13	0xbdd27bfc	-0.102775544
14	0x3ead30ae	0.33826202
15	0x3e4ac2dd	0.19800897
16	0xbd30f66b	-0.043203752
17	0x3e6d82e1	0.23194458
18	0x3e544a6d	0.20731516
19	0x3e0a79f1	0.1352308
20	0x3e955dcf	0.29173133
21	0xbde640fd	-0.11242864
22	0x3dc6149b	0.09671899
23	0x3eaa7390	0.33291292
24	0x3ea45c6b	0.3210176
25	0xbc939bb2	-0.018018577
26	0xbde28cee	-0.110620365
27	0x3d2b6d31	0.04185218
28	0xbd2d04e9	-0.04224101
29	0x3d60dd00	0.054898262
30	0x3e5efd14	0.21776229
31	0xbd652b24	-0.055949345
32	0x3dd420fe	0.10357855
33	0xbe767d77	-0.24071299
34	0xbce76044	-0.028244145
35	0x3da0a8ab	0.07844671
36	0xbdeef4c9	-0.11667783
37	0x3c8e958b	0.017405292
38	0xbe013890	-0.12619233
39	0xbe3ee1dd	-0.18640848
40	0x3dac987b	0.08427521
41	0xbd2d28a1	-0.042275075
42	0xbd942773	-0.07234087
43	0x3e4f59bb	0.20249073
44	0xbd2b3ec0	-0.04180789
45	0x3e3cda74	0.18442708
46	0xbdbb4be6	-0.09145336
47	0xbe29476d	-0.16531153
48	0x3d4fa574	0.050694898
49	0x3e301ad6	0.17197737
50	0x3e360c57	0.17778145
51	0xbd781118	-0.060563177
52	0xbcc90ea4	-0.024543114
53	0x3d9a4471	0.075325854
54	0x3e95c5ce	0.29252476
55	0xbe78295f	-0.24234532
56	0x3e092080	0.13391304
57	0xbe688e7f	-0.22710608
58	0x3e7269e3	0.23673205
59	0x3dc7cceb	0.09755882
60	0x3d481d17	0.048855867
61	0x3da3a126	0.07989721
62	0xbe446176	-0.19177803
63	0xbd8a482f	-0.06752049
64	0x3e4481cb	0.19190137
65	0xbe22e4b9	-0.15907563
66	0x3d323e95	0.043516714
67	0xbdf20c37	-0.11818736
68	0xbce1838a	-0.027528543
69	0x3ba5a07c	0.0050545316
70	0x3dda2035	0.10650674
71	0x3b64b49e	0.0034897695
72	0x3e6dc4ff	0.2321968
73	0xbe22b2df	-0.15888546
74	0x3c773911	0.015089289
75	0x3e8e2567	0.2776291
76	0xbe21b85c	-0.15792984
77	0x3e8be708	0.273247
78	0xbe136a4d	-0.1439602
79	0xbe4e63bc	-0.20155233
80	0x3e295e16	0.16539797
81	0xbdc0e6b1	-0.09419001
82	0xbe0d0fd9	-0.13775577
83	0xbe1ea1e5	-0.15491445
84	0x3e74fc67	0.23924409
85	0x3cb9b44b	0.022668978
86	0x3e39eac1	0.18155958
87	0xbe04a0a7	-0.12951909
88	0x3d67ec0b	0.056621592
89	0x3e06b8dc	0.13156456

conv1.bias f4 [6]
0	0x3d151ef1	0.03640646
1	0x3c874719	0.016513394
2	0xbe1ae1c7	-0.1512519
3	0x3dd1df4a	0.10247667
4	0xbdaad64b	-0.083416544
5	0x3dc4194e	0.09575139

conv2.weight f4 [16, 6, 5]
0	0x3e361fa4	0.17785507
1	0x3e96f9d0	0.29487467
2	0x3e206e0c	0.1566698
3	0x3e6f6ffc	0.23382562
4	0x3c05b286	0.008160239
5	0x3d041014	0.032241896
6	0x3d7f9513	0.062398028
7	0x3e672b4f	0.22575115
8	0xbdd2b464	-0.10288313
9	0xbd05d2a2	-0.03267158
10	0xbe164028	-0.14672911
11	0x3e315d10	0.17320657
12	0x3ba7e3f6	0.0051236106
13	0x3d1a0016	0.03759774
14	0x3ba87047	0.0051403376
15	0x3e4d2d7f	0.20036887
16	0x3df7abf8	0.12093347
17	0x3cfb64b5	0.03068767
18	0xbd838ad0	-0.06422961
19	0xb99df8ea	-0.0003013083
20	0xbdf541df	-0.119754545
21	0x3d9548d8	0.072892845
22	0xbd949ff5	-0.07257072
23	0x3c4b83d9	0.012421572
24	0x3d232af7	0.039835896
25	0x3d66f8fb	0.05638979
26	0xbdeeb0d6	-0.116548225
27	0x3e149e33	0.14513473
28	0xbd2705d1	-0.04077703
29	0x3c370a45	0.011171882
30	0xbe26f593	-0.16304617
31	0xbd9d58b4	-0.076829344
32	0xbc0d3885	-0.008619432
33	0xbd83a619	-0.06428165
34	0xbda4fa88	-0.080555975
35	0xbe27e065	-0.16394193
36	0x3ca5aff4	0.020225503
37	0xbc0b6b10	-0.008509412
38	0x3e191169	0.14948048
39	0xbdd2ed75	-0.102991976
40	0xbd8444bc	-0.064584225
41	0xbe374292	-0.17896488
42	0x3cbdf60c	0.023188613
43	0x3ca4774c	0.020076416
44	0x3c85f826	0.016353678
45	0x3ca0daec	0.01963564
46	0x3e1f9c68	0.15587008
47	0xbd0086be	-0.0313785
48	0x3e1e1e7e	0.1544132
49	0xbe043070	-0.12909102
50	0x3d54afaf	0.051925357
51	0xbcbfaaf3	-0.023396945
52	0x3e2dba0b	0.16965501
53	0x3d636564	0.055516616
54	0x3d0af96f	0.033929285
55	0xbdc789f6	-0.09743111
56	0x3e1b78f0	0.15182853
57	0xbd43f27c	-0.047838673
58	0xbe0c5d65	-0.13707502
59	0xbdc69a9c	-0.09697458
60	0x3e8e8d91	0.27842382
61	0x3e002857	0.12515388
62	0xbb8e6d69	-0.004346539
63	0x3c88f42a	0.016717989
64	0x3e7ec290	0.24878907
65	0x3e8b25ca	0.27177268
66	0x3e818906	0.25299853
67	0x3dc47468	0.09592515
68	0xbd3c7dae	-0.046018295
69	0x3dfe9e07	0.12432485
70	0x3dffc79c	0.12489244
71	0x3e310257	0.17286049
72	0xbdcd8228	-0.10034591
73	0x3d832029	0.064026184
74	0x3d19732a	0.037463345
75	0x3d69c80d	0.05707555
76	0x3e0068de	0.12540004
77	0x3d97387a	0.07383819
78	0x3e3465cd	0.17616959
79	0xbdd907e3	-0.105972074
80	0xbd678d43	-0.056531202
81	0xbde344d6	-0.11097114
82	0xbdd40afb	-0.10353657
83	0xbca3117c	-0.019905798
84	0xbc977325	-0.018487522
85	0x3d21870f	0.039435443
86	0xbd0695c3	-0.032857668
87	0xbb572ed8	-0.0032834318
88	0x3a213ac9	0.0006150422
89	0x3e47926e	0.19489452
90	0x3e9dfbfe	0.30856317
91	0x3dd9abf7	0.10628503
92	0x3e8f5a69	0.27998665
93	0x3e92edc1	0.28697017
94	0x3d96030c	0.073248
95	0x3e63eb69	0.2225777
96	0x3e131374	0.1436289
97	0x3d5f8f5f	0.05458009
98	0x3d0300b9	0.03198311
99	0x3ba35b2c	0.004985234
100	0xbe002c23	-0.12516837
101	0x3e0c1ab4	0.13682061
102	0xbd94407d	-0.07238863
103	0x3e1fd6f5	0.15609343
104	0x3b98ba8a	0.004660909
105	0x3dd2326f	0.10263526
106	0xbdaaa8d8	-0.08332986
107	0x3e0d284a	0.137849
108	0x3d5659d7	0.05233177
109	0xbca9d7ae	-0.020732727
110	0xbc31da1a	-0.010855222
111	0xbe37c454	-0.17945987
112	0x3db568ba	0.08857866
113	0x3e217835	0.15768512
114	0x3daed9eb	0.08537658
115	0xbc62f171	-0.013851509
116	0xbe1d8f1b	-0.15386622
117	0x3dcf7e18	0.10131472
118	0xbda42187	-0.08014207
119	0xbc64d05b	-0.013965691
120	0xbe2bf2e0	-0.16791868
121	0xbdf7769e	-0.12083171
122	0xbe0c1196	-0.13678584
123	0xbdef9624	-0.11698559
124	0xbe1fa7a3	-0.15591292
125	0xbde5c24e	-0.11218701
126	0x3e21b5b8	0.15791976
127	0xbc6539e6	-0.013990855
128	0x3e1f579d	0.15560766
129	0xbe19baf9	-0.1501273
130	0xbdca3ecc	-0.09875259
131	0x3d646420	0.05575955
132	0xbd3b58f6	-0.045739137
133	0x3da03395	0.078223385
134	0xbdbf1fc2	-0.09332229
135	0xbdc96251	-0.098332055
136	0x3d659ccf	0.056057747
137	0x3df0e2ff	0.11762046
138	0xbb12b6cc	-0.0022386787
139	0x3c29869d	0.010347036
140	0x3de2b47a	0.110695794
141	0xbe332a79	-0.17496671
142	0x3e23ddf9	0.16002645
143	0xbe37bb97	-0.17942654
144	0x3d9ecd9f	0.07754063
145	0xbd2f28c4	-0.042763487
146	0xbd6df299	-0.058092687
147	0xbd09442b	-0.033512276
148	0x3d03fa0f	0.032220896
149	0xbdfcc1c9	-0.12341649
150	0xbdcd0e4d	-0.10012493
151	0xbde38ee1	-0.11111236
152	0x3dbe7d53	0.093012474
153	0xbdabdbee	-0.08391558
154	0xbd9416e4	-0.072309285
155	0xbd9604e7	-0.07325154
156	0x3a94d0a9	0.001135369
157	0xbd859849	-0.06523187
158	0xbd0c2a0f	-0.034219798
159	0xbe15636a	-0.14588705
160	0x3d65a035	0.05606099
161	0x3dc42abe	0.09578465
162	0x3d886c00	0.06661224
163	0x3cc54b24	0.024083681
164	0xbe0c46e4	-0.13698918
165	0x3d34b45f	0.044117328
166	0x3d8d6736	0.069044515
167	0x3ce8a1f7	0.028397543
168	0x3d7ea558	0.062169403
169	0xbc96fe3e	-0.018431779
170	0x3c06cb86	0.008227235
171	0x3d7164fb	0.058934193
172	0xbe25bca6	-0.16185245
173	0x3cfb3198	0.030663297
174	0x3da4aaeb	0.080404125
175	0x3e2397b4	0.15975839
176	0x3e1a81b6	0.15088543
177	0x3d88487d	0.06654451
178	0x3c7fdd3a	0.015616709
179	0x3d701e89	0.05862287
180	0xbdb526e2	-0.08845307
181	0x3d9de477	0.07709592
182	0xbda8d2b4	-0.082433134
183	0xbd5ca23f	-0.053865667
184	0xbdb951fe	-0.09048842
185	0x3deed4c1	0.11661673
186	0x3e298bda	0.16557255
187	0x3e15710b	0.14593904
188	0x3d1153a1	0.035480145
189	0xbdee869c	-0.116467685
190	0xbe27fcec	-0.16405076
191	0x3d4736c6	0.04863622
192	0x3d26d9ed	0.040735174
193	0xbc4bd9c7	-0.012442059
194	0xbc800a23	-0.015629834
195	0xbc67ea6b	-0.014155011
196	0xbcd08832	-0.025455568
197	0xbd0a4dc4	-0.03376557
198	0xbe260a01	-0.16214754
199	0xbcbb6fc8	-0.02288045
200	0xbe19a3c3	-0.15003876
201	0x3e24fb0c	0.16111392
202	0x3df0cf8e	0.11758338
203	0xbdc3828e	-0.09546386
204	0xbd87e4df	-0.066354506
205	0xbdb2a2c8	-0.08722454
206	0xbe0426b1	-0.12905385
207	0xbdaa9ee8	-0.0833109
208	0x3d9e48ed	0.07728753
209	0x3dc46f6f	0.09591567
210	0x3e1f784e	0.15573236
211	0x3dec1a37	0.115284376
212	0xbda468a8	-0.08027774
213	0x3def1a0a	0.116748884
214	0xbe3d8646	-0.18508253
215	0x3dc27386	0.094946906
216	0xbda4d06f	-0.08047568
217	0x3d1088be	0.035286658
218	0x3c2f00ef	0.010681375
219	0xbc234c8d	-0.009966982
220	0x3cb40552	0.021975193
221	0xbd8baddc	-0.068202704
222	0xbd83f626	-0.064434335
223	0xbd847223	-0.06467082
224	0xbdcd8270	-0.100346446
225	0x3e112772	0.14175203
226	0x3c3c469b	0.011491443
227	0x3d8ff24d	0.07028637
228	0xbe0b8965	-0.1362663
229	0x3d9fb70c	0.07798585
230	0x3da37315	0.079809345
231	0x3e05f1df	0.13080548
232	0x3e052d22	0.13005498
233	0xbdbc1971	-0.0918454
234	0x3cb8c53f	0.022554992
235	0x3e046439	0.12928857
236	0x3db24b04	0.08705714
237	0xbe3c4c10	-0.1838839
238	0xbe30e999	-0.1727661
239	0xbe0d88a7	-0.1382166
240	0xbe34377f	-0.17599295
241	0xbe34fa7b	-0.17673676
242	0x3d491d01	0.049099926
243	0xbc1f347c	-0.009717103
244	0x3bb741ae	0.0055925464
245	0xbe0bc894	-0.13650733
246	0xbd958ba9	-0.07302029
247	0xbc523719	-0.012830519
248	0xbdb73cf8	-0.08947176
249	0xbd55b58c	-0.05217509
250	0xbe1ed25d	-0.15509935
251	0xbd8bf4b6	-0.06833784
252	0xbce1ae81	-0.02754903
253	0x3d941750	0.07231009
254	0xbe382cda	-0.1798586
255	0xbd82921b	-0.06375524

conv2.bias f4 [16]
0	0xbe133806	-0.1437684
1	0x3dc99c60	0.09844279
2	0x3e474840	0.19461155
3	0x3e5c46ea	0.21511427
4	0x3de6c324	0.11267689
5	0xbc3e2920	-0.011606485
6	0xbe088ead	-0.13335676
7	0xbe0d1874	-0.1377886
8	0x3d3ad402	0.045612343
9	0xbe3497b9	-0.17636003
10	0x3dc7584f	0.097336404
11	0xbe0ca0f0	-0.13733268
12	0xbc6af53f	-0.014340698
13	0x3e1f6fb9	0.15569963
14	0x3e327a2b	0.17429416
15	0xbdf32de6	-0.11873989

fc1.weight f4 [120, 336]
0	0xbba7032c	-0.0050968137
1	0xbd7dddd2	-0.061979122
2	0x3cdba91d	0.026814038
3	0xbb7be8ee	-0.0038438397
4	0x3c961d16	0.018324416
5	0xbb9a8f26	-0.0047167717
6	0x3d0f4ae8	0.034983546
7	0xbca8acd2	-0.02059022
8	0xbc1446ec	-0.009050112
9	0x3c0723bb	0.008248265
10	0xbc99e1ce	-0.01878443
11	0x3cb94a89	0.022618549
12	0xbcb40c44	-0.021978505
13	0x3cdbc25d	0.026826078
14	0x3cfd3dcd	0.030913258
15	0x3ce9a4f4	0.028521039
16	0x3cc322c8	0.023820296
17	0x3a8f6aff	0.0010941922
18	0x3d833ac3	0.06407692
19	0x3cf33317	0.029687447
20	0x3d275611	0.040853564
21	0x3af1aee2	0.001843896
22	0x3d11d388	0.035602123
23	0xb9d6e3dc	-0.0004098703
24	0x3d0d3955	0.034478504
25	0xbd538526	-0.051640652
26	0xbd2d1291	-0.042254034
27	0x3cab01a6	0.02087481
28	0x3c075e9c	0.008262303
29	0xbd5f156c	-0.05446379
30	0xbd2b15a1	-0.041768674
31	0x3c25fa99	0.010130548
32	0x3d0227e2	0.031776316
33	0xbd351e63	-0.044218432
34	0x3d228afd	0.03968333
35	0xbd3538e6	-0.044243716
36	0xbcee536f	-0.029092519
37	0x3bb78d68	0.0056015737
38	0x3d57bb3d	0.0526688
39	0xbd4e8995	-0.050424177
40	0x3c01fa0e	0.007933153
41	0xbd3b6d77	-0.04575869
42	0x3cb683e9	0.022279697
43	0xbbf4324c	-0.007452285
44	0x38c6005e	9.441444e-05
45	0xbbd0571e	-0.0063580414
46	0x3cadb33c	0.02120363
47	0xbd9092d4	-0.07059255
48	0x3c8da3d6	0.017290037
49	0x3cac96a7	0.02106793
50	0x3c758ec6	0.014987653
51	0xbc140cc8	-0.00903625
52	0x3a66aafa	0.0008799281
53	0xbcefa51e	-0.029253539
54	0xbc911d52	-0.017714176
55	0xbc7a40f7	-0.015274278
56	0x3cebb1b2	0.028771255
57	0x3d51c88a	0.05121664
58	0x3d8a14c3	0.06742241
59	0x3cf76b9f	0.030202685
60	0x3c85e449	0.016344206
61	0x3d77f490	0.060535967
62	0x3d8ac627	0.06776076
63	0x3abfb30b	0.0014625503
64	0x3c0ab7ff	0.00846672
65	0xbd80e549	-0.06293733
66	0xbd951dfc	-0.0728111
67	0xbb3633fa	-0.0027801977
68	0xbd5426fe	-0.051795
69	0x3cb0ea75	0.021596173
70	0xbd9e44f6	-0.07727997
71	0x3c4bcb5c	0.012438621
72	0xbd394167	-0.04522839
73	0x3cb67041	0.022270324
74	0x3b2d1a88	0.002641352
75	0x3d138623	0.036016595
76	0xbc42bcba	-0.011885816
77	0x3d333f15	0.04376133
78	0x3b93438d	0.0044941367
79	0x3d27a77a	0.040931202
80	0x3d878532	0.06617202
81	0x3db86d5c	0.09005234
82	0x3d6a5391	0.0572086
83	0x3da102aa	0.07861836
84	0xbca11f27	-0.019668175
85	0xbc48e19c	-0.012260821
86	0xbd28e801	-0.04123688
87	0x3ca9ccad	0.02072748
88	0x3b41f69c	0.0029596454
89	0xbcc7ed38	-0.024405107
90	0xbd3064ec	-0.043064997
91	0xbc2bf6d0	-0.010495856
92	0x3d21580a	0.0393906
93	0xbc3cd370	-0.01152502
94	0xbd3a0a13	-0.045419764
95	0x3b872823	0.0041246577
96	0x3bd9a824	0.0066423584
97	0x3ad6795e	0.0016363075
98	0x3d09fbab	0.033687275
99	0x3d24e9b2	0.04026193
100	0x3cb070b1	0.02153811
101	0xbd22c46d	-0.039738107
102	0x3c230e3f	0.009952127
103	0xbc172f58	-0.009227596
104	0xbcd53e46	-0.02603067
105	0xbd55d5c4	-0.052205816
106	0xbd21a690	-0.039465487
107	0xbabdf25e	-0.0014491787
108	0xbc3f0844	-0.0116596855
109	0xbd0e05bf	-0.03467345
110	0x3c5401ed	0.012939912
111	0xbcc932ca	-0.02456035
112	0x3ce49367	0.027902318
113	0xbcad667c	-0.021167032
114	0x3ce23372	0.027612422
115	0x3ba45bbd	0.005015819
116	0x3c0f41c1	0.008743704
117	0xbd58f231	-0.052965347
118	0x3c563dfc	0.013076302
119	0x3ba001e6	0.004883039
120	0x3c844864	0.0161478
121	0x3d39689a	0.04526577
122	0xbc876f55	-0.01653258
123	0xbc3772f9	-0.011196845
124	0xbd30be75	-0.043150384
125	0x3cad4c11	0.021154435
126	0x3c237c79	0.009978407
127	0xbd43c9c4	-0.04779984
128	0x3c47a1bb	0.012184556
129	0xbd0a9604	-0.033834472
130	0x3d5296af	0.051413234
131	0xbb9639e7	-0.004584539
132	0x3c48b075	0.012249102
133	0x3c11f6f3	0.008908975
134	0x3d3925a3	0.04520191
135	0xba889ff7	-0.001042365
136	0x3cb0c60a	0.021578807
137	0x3d10b5c3	0.03532959
138	0x3ccfe4e4	0.025377698
139	0xbcee7694	-0.029109277
140	0xbc49ca34	-0.012316275
141	0x3d32dfbb	0.043670397
142	0x3c265fa9	0.010154643
143	0xbcfe2a4d	-0.03102603
144	0xbb19f27b	-0.0023490477
145	0x3cbd5067	0.023109628
146	0xbd09bc6f	-0.03362697
147	0xbc9fb9d2	-0.019497786
148	0x3cd4467a	0.025912512
149	0x3b84e9f0	0.004056208
150	0x3c14f9bf	0.009092747
151	0x3c8ff787	0.017574085
152	0x3d4fbdb7	0.050718036
153	0xbd4ee8a6	-0.05051484
154	0xbba4e353	-0.005031982
155	0x3cc653c9	0.024209874
156	0x3d0b4104	0.03399755
157	0xbca455d2	-0.020060454
158	0x3ca54c00	0.020177841
159	0x3d289acc	0.04116325
160	0xbd29686e	-0.041359358
161	0x3d2f4daf	0.042798694
162	0xbc96c753	-0.018405592
163	0xbd2c741a	-0.04210291
164	0x3c78e88b	0.015192161
165	0x3d44c352	0.048037834
166	0x3c57bf53	0.013168174
167	0xbd13676f	-0.035987314
168	0x3d0067b4	0.0313489
169	0x3d02e509	0.031956706
170	0xbcbb5c56	-0.022871178
171	0xbc662ad7	-0.0140483
172	0xbcde470b	-0.027133485
173	0xbd2b970a	-0.04189209
174	0xbd401639	-0.046896193
175	0x3c592a64	0.013254736
176	0xbd36fdf9	-0.0446758
177	0x3d1b661b	0.037939172
178	0xba198ea5	-0.00058577425
179	0xbc8525fa	-0.01625346
180	0x3d2848b8	0.041084975
181	0x3c15e8dd	0.009149757
182	0x3c62011f	0.013794213
183	0xbcd76463	-0.026292985
184	0x3c816fd4	0.015800394
185	0x3d38d33d	0.045123328
186	0x3ce9b21a	0.028527308
187	0x3b25e9b6	0.0025316305
188	0x3d005b14	0.03133686
189	0x3d1875b9	0.037221644
190	0x3d2b8c49	0.041881833
191	0xbd57a9ba	-0.0526521
192	0xbd31bb80	-0.043391705
193	0xbc9cd7ab	-0.019145807
194	0x3cc2cd95	0.02377967
195	0x3d567cd9	0.052365158
196	0x3ceb7813	0.02874378
197	0x3d2d81a2	0.042359956
198	0x3d423a5c	0.047418937
199	0x3cd2f82a	0.0257531
200	0xba3ef36d	-0.0007284198
201	0xbd393742	-0.045218714
202	0x3d2e5832	0.04256458
203	0xbca1fb2f	-0.019773094
204	0x3c306c49	0.010768005
205	0xbbc01d3d	-0.0058628605
206	0xbc1897e5	-0.009313558
207	0x3d1c2fab	0.038131397
208	0x3d067a93	0.03283174
209	0xbd356482	-0.044285305
210	0x3cd885d2	0.026430998
211	0xbd469f6a	-0.048491873
212	0x3d5b418d	0.05352931
213	0xbd589d70	-0.05288452
214	0x3b0457bf	0.0020193902
215	0xbbbfca51	-0.0058529754
216	0xbcc05351	-0.023477228
217	0xbd553cfb	-0.05206011
218	0xbd311614	-0.043233946
219	0xba00dab1	-0.00049154
220	0x3cf6a2b7	0.030106885
221	0xbb432626	-0.0029777377
222	0x3d3ac0f8	0.045594186
223	0x3d38f6bc	0.04515718
224	0x3b85006e	0.004058889
225	0xbc7e6894	-0.015527863
226	0x3b0ade34	0.0021189572
227	0xbcd215d9	-0.025645183
228	0x3d28519b	0.04109345
229	0x3d42ceae	0.047560386
230	0xbd3143aa	-0.04327742
231	0x3b897b9e	0.0041956445
232	0x3d02b41e	0.031910054
233	0x3c87b118	0.016563937
234	0xbbe6a42e	-0.0070386147
235	0xbd8b8040	-0.06811571
236	0xbcc1bbda	-0.023649145
237	0xbd8d7ab0	-0.069081664
238	0x3c8f546e	0.017496314
239	0x3b4c37d6	0.003116121
240	0x3d32ff2c	0.043700382
241	0xbc213bbe	-0.009840904
242	0x3d2c2aa3	0.04203285
243	0x3c424998	0.011858366
244	0xbbde1ea9	-0.0067785573
245	0xbce025a9	-0.027361708
246	0xbc093d5b	-0.008376445
247	0x3da29d07	0.07940107
248	0x3d30e22d	0.043184448
249	0x3cbc141c	0.022958808
250	0x3d3e4401	0.046451572
251	0x3d40d6b4	0.047079757
252	0x3d11f84f	0.035637196
253	0x3c88ca6f	0.01669809
254	0xbd24bb8d	-0.040217925
255	0x3bd02623	0.0063522025

fc1.bias f4 [120]
0	0xbd7b0801	-0.06128693
1	0x3c0001e4	0.007812951
2	0xbd293aa7	-0.0413157
3	0xbd89a592	-0.06721033
4	0xbafcd1ca	-0.0019288596
5	0x3ce0125e	0.027352508
6	0x3d47f5de	0.04881846
7	0xbd331bec	-0.0437278
8	0x3b9e3655	0.004828254
9	0xbd0ffa4d	-0.035150815
10	0xbd6b29ef	-0.057413038
11	0xbd14b7aa	-0.03630797
12	0xbbd0603b	-0.006359128
13	0xbc6b16a2	-0.014348658
14	0xbce3fd10	-0.02783063
15	0xbb63733c	-0.0034706136
16	0xbbab0646	-0.0052192537
17	0x3d02ab8f	0.031901892
18	0xbd09dbde	-0.033656947
19	0xbcb03a93	-0.021512305
20	0xbc9db8a5	-0.019253084
21	0x3d8ce0e7	0.06878834
22	0x3c44e79c	0.012018111
23	0x3d2a6128	0.04159656
24	0x3d9926f1	0.074781306
25	0x3cd86024	0.02641303
26	0xbc4afb96	-0.012389084
27	0x3bf2521d	0.0073950426
28	0x3c8ef06d	0.017448628
29	0x3cc303ab	0.02380546
30	0xbcd43f9d	-0.02590924
31	0x3ca99ce5	0.020704696
32	0x3d2221d9	0.03958306
33	0x3d1ab42a	0.037769474
34	0xbd46e95e	-0.0485624
35	0x3dc5f5d6	0.0966603
36	0x3d1df988	0.03856805
37	0xbd1d2b6c	-0.03837149
38	0xbc705481	-0.014668585
39	0xbcfdd57f	-0.030985592
40	0x3d76788a	0.06017355
41	0xbd03a0b7	-0.03213569
42	0x3d2fc9a4	0.04291691
43	0xbd33f8d4	-0.043938473
44	0xbcf13301	-0.029443266
45	0xbc9ec1f3	-0.019379592
46	0xbd172139	-0.036896918
47	0xbd2d52df	-0.04231536
48	0xbd1bf8db	-0.038079124
49	0x3d267330	0.040637195
50	0x3d1bc4c7	0.03802946
51	0x3d405666	0.046957396
52	0x3c0a230e	0.008431209
53	0xbd5da579	-0.054112885
54	0x3d0277ff	0.03185272
55	0x3d051807	0.032493617
56	0xbd3c2c39	-0.04594061
57	0x3d464e22	0.048414357
58	0x3c3776e8	0.011197783
59	0xbd0cde6b	-0.0343918
60	0x3b2e41d9	0.0026589541
61	0xbcac9be7	-0.021070434
62	0x3c8c1664	0.01710052
63	0xbd21ee6f	-0.03953403
64	0x3d56c873	0.052437257
65	0x3cf439b7	0.029812677
66	0x3cea0a7d	0.028569454
67	0x3d8ddae6	0.06926517
68	0xbb4ebfbf	-0.0031547395
69	0xbc94dba6	-0.018171143
70	0x3c2db226	0.010601556
71	0x3d05cb65	0.032664675
72	0x3c37dd5b	0.011222209
73	0xbd14783e	-0.036247484
74	0xbcba78ca	-0.022762675
75	0xbcd5217b	-0.026016941
76	0x3d381a8b	0.04494719
77	0xbc18b850	-0.009321287
78	0xbd2bdeb5	-0.041960437
79	0xbd06614e	-0.03280764
80	0x3c4f3261	0.012646289
81	0xbd5a3db0	-0.053281486
82	0x3d903dd3	0.07043042
83	0x3da20d4c	0.079126924
84	0x3d2da0e3	0.04238976
85	0x3d5d47fd	0.05402373
86	0x3d606653	0.054785084
87	0xbd6a6e62	-0.057234176
88	0x3d5da481	0.05411196
89	0x3d14ff4e	0.03637629
90	0xbbb3a0a9	-0.0054817987
91	0xbd128836	-0.035774432
92	0x3d60872b	0.054816406
93	0xbd3cc32d	-0.04608457
94	0x3d39d571	0.04536957
95	0xbd163f95	-0.03668173
96	0xbd40289d	-0.04691373
97	0xbcf44933	-0.02982006
98	0xbd807a5c	-0.06273338
99	0xbd2d52c8	-0.042315274
100	0xbc302a85	-0.010752325
101	0x3bdb120e	0.006685502
102	0x3d8eb2de	0.0696771
103	0x3d13c93e	0.03608059
104	0x3d074920	0.03302872
105	0x3d90e2db	0.07074519
106	0x3cc51f53	0.024062788
107	0xbb70f8ed	-0.0036769465
108	0xbd4bccce	-0.049755864
109	0xbccf5035	-0.0253068
110	0x3cca8d60	0.024725616
111	0x3d1df061	0.03855932
112	0x3cb6d294	0.022317208
113	0x3d7f3010	0.062301695
114	0x3d5d9fea	0.054107584
115	0xbb9afee0	-0.0047300905
116	0xbd2ec711	-0.042670313
117	0xbb89192f	-0.0041839103
118	0xbce257af	-0.027629701
119	0xbb48757a	-0.00305876

fc2.weight f4 [84, 120]
0	0xbc72bd70	-0.014815673
1	0x3d2d6d57	0.042340603
2	0x3dd2a6f2	0.102857485
3	0xbda0b2b4	-0.07846585
4	0x3d7a9987	0.06118157
5	0xbd9651cc	-0.0733982
6	0xbcc273e7	-0.023736907
7	0xbd4e0be6	-0.050304316
8	0xbd7de039	-0.061981414
9	0xbd103a44	-0.035211816
10	0xbc895740	-0.016765237
11	0x3d60d2ea	0.054888643
12	0x3d9f2f42	0.077726856
13	0x3d178d9a	0.037000276
14	0xbba351f8	-0.0049841367
15	0x3d472041	0.048614744
16	0xbda591e9	-0.08084471
17	0x3cb2ad92	0.02181128
18	0xbd2ccd89	-0.0421882
19	0xbc4e8da3	-0.012607011
20	0x3d2e1f3c	0.042510256
21	0xbd7e72ec	-0.062121317
22	0xbd80f4da	-0.06296702
23	0xbd21a83e	-0.03946709
24	0x39a765ac	0.00031928474
25	0xbda10048	-0.07861382
26	0x3d00e96f	0.03147262
27	0xbc2ade0d	-0.010428918
28	0x3db071bc	0.08615443
29	0x3d65ad19	0.056073282
30	0x3d9cc7cd	0.076552965
31	0xbd08276a	-0.033240713
32	0x3c81e6c2	0.015857104
33	0xbd270aad	-0.040781666
34	0x3da5695b	0.080767356
35	0x3d500e24	0.050794736
36	0x3b62921a	0.0034571947
37	0xbc6bc8c4	-0.014391128
38	0x3d708a6b	0.058725756
39	0x3d1cac2a	0.038250126
40	0xbd4924d4	-0.049107388
41	0x3d9ec99b	0.07753297
42	0x3c55575b	0.013021315
43	0xbc5aca34	-0.013353873
44	0x3d74c9eb	0.059762876
45	0xbd97bb25	-0.07408742
46	0x3c8c1544	0.017099984
47	0xbdb5fd20	-0.088861704
48	0xbd8078a4	-0.062730104
49	0xbd5e0979	-0.054208253
50	0xbd36f558	-0.04466757
51	0xbd11367b	-0.035452347
52	0xbd61f7d5	-0.05516799
53	0x3db88f11	0.09011663
54	0x3cf4e790	0.029895574
55	0xbd9efd3e	-0.07763146
56	0xbd9df15a	-0.0771205
57	0x3d75d802	0.060020454
58	0x3c9d8fe8	0.019233659
59	0xbda2b1a5	-0.07944039
60	0x3d95bdf7	0.073116235
61	0xbd946b51	-0.072470315
62	0xbda9949e	-0.082802996
63	0x3d9dce30	0.07705343
64	0x3cae66ec	0.021289311
65	0xbcfaa95c	-0.030598335
66	0xbda0998c	-0.07841787
67	0x3dc3aa84	0.09554008
68	0xbd66dcbf	-0.056362864
69	0x3dad5289	0.08463008
70	0xbdc08f72	-0.0940236
71	0xbd983de5	-0.074336804
72	0x3d91f326	0.07126455
73	0xbdac2bde	-0.084068045
74	0xbcefb4c7	-0.029261006
75	0xbd30342f	-0.043018516
76	0x3dcb285c	0.09919807
77	0x3d595b38	0.05306551
78	0xbc1858f3	-0.009298551
79	0x3d725426	0.05916228
80	0x3dc61e42	0.0967374
81	0xbc0be7c1	-0.008539141
82	0x3cf353f3	0.029703116
83	0x3c82537c	0.01590895
84	0x3cd30ddd	0.025763446
85	0xbd289a8d	-0.041163016
86	0xbda1e017	-0.0790407
87	0xbca19655	-0.019725004
88	0xbd8b218b	-0.06793507
89	0x3d058f48	0.032607347
90	0xbd12c09e	-0.035828225
91	0x3bfb30aa	0.0076657133
92	0x3dab3eca	0.083615854
93	0x3d3b9443	0.04579569
94	0x3c8271c8	0.015923396
95	0xbd89985d	-0.06718514
96	0xbc9fbef4	-0.019500233
97	0x3d14f4d2	0.03636629
98	0x3d6e62b7	0.05819961
99	0x3d0b9baf	0.03408402
100	0xba1ab91b	-0.00059022167
101	0xbc1d8405	-0.009613995
102	0x3d423f49	0.047423635
103	0x3cc7c9e5	0.024388263
104	0x3c9f9369	0.01947947
105	0x3ca6f2f5	0.020379523
106	0x3d8dac91	0.0691768
107	0x3d6cbf35	0.057799537
108	0x3cc017e5	0.023448894
109	0xbbaca9d3	-0.005269268
110	0xbd0d9599	-0.034566496
111	0xbcb977e7	-0.022640182
112	0x3d816d26	0.063196465
113	0x3db8ce36	0.090237066
114	0x3d8f187a	0.069870904
115	0x3a8fb48f	0.0010963845
116	0x3c9292f6	0.017892342
117	0xbcb3a326	-0.021928381
118	0xbd13106b	-0.03590433
119	0x3db890b4	0.09011975
120	0x3d8c966b	0.068646275
121	0x3d5d7f86	0.054076694
122	0x3d9c20ac	0.07623419
123	0x3be20eae	0.0068987226
124	0xbd9ddd14	-0.07708183
125	0x3c8ec917	0.017429871
126	0xbcedcf0a	-0.029029388
127	0xbcea0b8f	-0.028569965
128	0xbd79686e	-0.060890608
129	0xbd918095	-0.07104603
130	0xbb91ba10	-0.004447229
131	0x3d9bc35c	0.07605621
132	0xbc22e34d	-0.009941888
133	0xbd884d68	-0.06655389
134	0xbd6e0bcd	-0.058116723
135	0xbd7e0c74	-0.062023595
136	0x3d59a7a5	0.053138394
137	0x3d98c71d	0.07459853
138	0xbda52c9d	-0.0806515
139	0x3adebc1f	0.001699332
140	0x3d87144c	0.06595668
141	0xbcc4bd16	-0.024015944
142	0x3d953a6c	0.07286534
143	0xbda28457	-0.07935398
144	0x3c413a05	0.011793618
145	0xbcbadff6	-0.022811871
146	0x3dc2819d	0.09497378
147	0x3db423a4	0.087958604
148	0x3bb366f9	0.005474922
149	0xbd23e7e1	-0.04001606
150	0xbc60cec3	-0.013721171
151	0x3c8a312a	0.016869146
152	0x3c8aef0c	0.01695969
153	0xbd35f6da	-0.04442487
154	0xbda3df9f	-0.08001637
155	0x3dc2f3b6	0.095191404
156	0xbc8dff26	-0.017333578
157	0x3d43fa81	0.04784632
158	0xbd0b6741	-0.034034017
159	0x3d8981fb	0.06714245
160	0xbba800ce	-0.005127049
161	0xbc53e305	-0.012932544
162	0x3bca088e	0.0061655706
163	0xbd013572	-0.03154511
164	0x3c876506	0.016527664
165	0xbcf9b86e	-0.03048345
166	0xbc32e2e6	-0.010918355
167	0xbd2b3e84	-0.041807666
168	0x3c0589b1	0.008150504
169	0xbcc421f3	-0.02394197
170	0x3d8420e0	0.06451583
171	0x3d91844a	0.0710531
172	0x3d315619	0.043295
173	0xbd6ad73a	-0.057334162
174	0x3c8e426a	0.017365653
175	0xbcb9e8b5	-0.022693971
176	0xbd72eea2	-0.05930961
177	0x3cdda3c4	0.027055629
178	0xbcafab0f	-0.021443872
179	0xbd9a82e1	-0.075444944
180	0xbcac8371	-0.02105877
181	0x3c28271c	0.010263231
182	0xbda71a64	-0.081593305
183	0xbdb753b7	-0.08951514
184	0x3dbf0e84	0.093289405
185	0x3b9aa7c3	0.004719706
186	0xbd0e6359	-0.034762714
187	0x3d82ea46	0.0639234
188	0xbdb798c5	-0.08964685
189	0xbc9a06dc	-0.018802099
190	0x3d2fd221	0.042925004
191	0xbcfcc17e	-0.030853983
192	0x3d58aca9	0.052899037
193	0xbd2c4788	-0.042060405
194	0xbca60670	-0.020266742
195	0xbd602a4a	-0.05472783
196	0x3bf9c0f4	0.0076218788
197	0x3d848db0	0.06472337
198	0xbc188ea0	-0.009311348
199	0x3c19fab4	0.009398151
200	0x3ba6f133	0.005094671
201	0x3d9833c8	0.074317515
202	0x3dae3e57	0.08507984
203	0x3db269b1	0.08711565
204	0xbd976ffa	-0.07394405
205	0x3c6efcae	0.014586611
206	0xbc954440	-0.01822102
207	0x3da50079	0.08056731
208	0xbd00e441	-0.03146768
209	0xbce35fec	-0.0277557
210	0x3be7b088	0.0070706047
211	0x3d52955a	0.051411964
212	0x3d5abb45	0.05340125
213	0xbda65f13	-0.08123603
214	0xbdabc627	-0.08387404
215	0xbcb07f8d	-0.021545196
216	0x39760dd1	0.00023465535
217	0xbd1f8fed	-0.038955618
218	0xbc1cdc7a	-0.00957405
219	0x3d4030e7	0.046921637
220	0x3c912d1f	0.01772171
221	0x3d28d00a	0.041214027
222	0x3d60f1e9	0.054918204
223	0xbda86523	-0.08222415
224	0xbd901679	-0.07035536
225	0x3db11163	0.086458944
226	0x3ce5959d	0.028025443
227	0x3dab0822	0.083511606
228	0xbda4e0fd	-0.080507256
229	0xbd5ae959	-0.053445194
230	0xbd90b720	-0.07066178
231	0x3d99b019	0.07504291
232	0x3ce440a2	0.02786285
233	0x3c75d89e	0.015005259
234	0xbc957b6a	-0.018247325
235	0x3cc3db47	0.02390827
236	0x3d48d8c2	0.04903484
237	0xbd954173	-0.07287874
238	0x3c9581fc	0.018250458
239	0x3ca10c39	0.019659149
240	0xbd2384e2	-0.03992165
241	0xbdafb25c	-0.08578941
242	0x3cfe1e12	0.031020198
243	0xbd56b1e7	-0.052415755
244	0xbd0f1f2f	-0.03494185
245	0x3bb0b0d3	0.005392173
246	0x3c98bc59	0.018644499
247	0xbd285198	-0.04109344
248	0xbd98e3cf	-0.07465326
249	0xbd501c52	-0.05080826
250	0x3d4cd000	0.05000305
251	0xbcbfa151	-0.023392351
252	0x3da56bf0	0.08077228
253	0x37015b49	7.710253e-06
254	0xbd4cc3e4	-0.049991503
255	0xbd245374	-0.04011865

fc2.bias f4 [84]
0	0x3dde4f21	0.108549364
1	0xbcda113b	-0.026619544
2	0xbca3a501	-0.01997614
3	0xba510ff1	-0.0007975093
4	0x3d2d2f70	0.042281568
5	0x3d2ecd12	0.04267604
6	0x3ded513b	0.11587759
7	0xbdb1be28	-0.086788476
8	0xbc5af71f	-0.013364582
9	0x3d6c73ce	0.057727627
10	0xbd39eb5b	-0.045390468
11	0x3c85d5cb	0.016337296
12	0x3e136a46	0.14396009
13	0x3b4bed44	0.0031116763
14	0x3cc42a46	0.023945939
15	0x3b9efa29	0.0048515988
16	0xbd38e759	-0.045142505
17	0x3daa533f	0.08316659
18	0x3d51a22b	0.051180046
19	0x3e10a95e	0.14127108
20	0x3ce2a697	0.027667327
21	0xbcc00ad3	-0.023442661
22	0x3dc45df7	0.09588235
23	0x3da6d79d	0.08146594
24	0xbca2bd54	-0.01986567
25	0xbd35fbb3	-0.044429492
26	0x3cbfb09c	0.023399644
27	0x3da1de54	0.07903734
28	0xbd409e5b	-0.04702602
29	0x3dec11be	0.115268216
30	0xbdb61cf1	-0.08892239
31	0x3dea9a5d	0.11455224
32	0x3cca38e5	0.024685333
33	0x3df6b5ad	0.12046371
34	0x3d77ed2e	0.060528927
35	0x3d38d34a	0.045123376
36	0x3dac4a39	0.08412594
37	0xbc9c7089	-0.01909663
38	0xbd8f4e6e	-0.06997381
39	0xbd6606eb	-0.05615894
40	0x3d9af031	0.07565344
41	0xbd37644c	-0.044773385
42	0xbc9a4387	-0.018831028
43	0x3c54cdbf	0.012988507
44	0x3e02c249	0.12769426
45	0xbd845f63	-0.06463506
46	0xbd6e0b99	-0.05811653
47	0xbcfd2934	-0.030903436
48	0xbd78a69f	-0.060705777
49	0x3caaf1ca	0.020867247
50	0x3d8b3cfa	0.0679874
51	0xbdae3424	-0.08506039
52	0x3d9cb56c	0.07651791
53	0x3ddbe5b4	0.10737172
54	0xbd2957ed	-0.04134362
55	0xbcbbb639	-0.022914039
56	0x3cb27bf0	0.021787614
57	0xbd42dad0	-0.047571957
58	0xbb8701e6	-0.0041200994
59	0xbcfe2c4c	-0.031026982
60	0x3c457efe	0.012054203
61	0xbd5bd009	-0.053665195
62	0xbc923cbf	-0.017851232
63	0xbc1e883c	-0.0096760355
64	0xbd57d46d	-0.05269282
65	0x3d5c9c93	0.05386026
66	0x3cf18a0b	0.02948477
67	0x3da7459b	0.08167573
68	0xbc9a5c7e	-0.018842932
69	0x3df6c6a9	0.1204961
70	0xbdadb24f	-0.08481275
71	0xbd26ce55	-0.040724117
72	0xbd8c0f07	-0.06838804
73	0xbd82463d	-0.06361053
74	0x3d093d2f	0.033505615
75	0x3e114093	0.1418479
76	0xbd82b880	-0.06382847
77	0xbd6af165	-0.057359118
78	0x3e182b66	0.14860305
79	0x3de153d5	0.11002318
80	0x3c6d3c6f	0.0144797405
81	0x3e87bfe1	0.2651358
82	0xbdd8bb49	-0.10582597
83	0xbd8ff86e	-0.07029806

fc3.weight f4 [30, 84]
0	0x3e0eb0f5	0.13934691
1	0x3e4acf23	0.19805579
2	0xbd835741	-0.06413127
3	0x3cd0c055	0.025482336
4	0x3dae49fd	0.08510206
5	0xbd15efb2	-0.036605544
6	0x3e988417	0.29788277
7	0xbd76aa96	-0.060221277
8	0x3d1ff96a	0.03905622
9	0xbc92c8c6	-0.017918002
10	0xbc1dde02	-0.00963545
11	0x3d80e2a7	0.062932305
12	0x3e6d01aa	0.23145166
13	0xbd81069e	-0.0630009
14	0xbd55768e	-0.052115016
15	0xbd0aab5b	-0.033854824
16	0xbdabd4e9	-0.08390219
17	0x3e1a29af	0.15054964
18	0x3d79b3f9	0.06096265
19	0x3dcf1052	0.10110535
20	0xbcdc4354	-0.026887573
21	0xbd9e0662	-0.07716061
22	0xbd4e71c5	-0.050401468
23	0xbbbb455f	-0.005715057
24	0x3d9065ad	0.07050643
25	0x3de1037a	0.10986991
26	0xbda6f02a	-0.081512764
27	0x3bf3f2c8	0.0074447133
28	0x3d9c9be1	0.07646919
29	0x3e24b044	0.16082865
30	0x3dcf451d	0.10120604
31	0xbdb193d6	-0.086707756
32	0xbd4d105c	-0.05006443
33	0x3db79532	0.089640036
34	0x3da38d68	0.079859555
35	0x3e21a0f4	0.15784055
36	0x3e1cf933	0.15329437
37	0x3dc6b6e5	0.09702853
38	0x3c8d862e	0.017275896
39	0xbd557907	-0.052117374
40	0xbc14996f	-0.009069785
41	0x3de78669	0.113049336
42	0xbd4a6851	-0.04941589
43	0x3cfc6ba6	0.03081305
44	0x3e97f99b	0.2968262
45	0x3d1f3698	0.038870424
46	0xbdcb126e	-0.099156246
47	0xbda1f50f	-0.07908069
48	0x3dd3c10a	0.10339554
49	0x3c807291	0.01567963
50	0xbd84cce8	-0.06484395
51	0xbd1647a0	-0.0366894
52	0x3e07d208	0.13263714
53	0x3d26472f	0.04059523
54	0xbd3efa37	-0.046625342
55	0x3c9b1cab	0.018934568
56	0x3928f8a0	0.00016114349
57	0xbdb2323c	-0.08700988
58	0x3cd8ab9b	0.026449015
59	0xbd10ec35	-0.035381515
60	0x3c1ca4de	0.009560792
61	0x3a99aef1	0.001172511
62	0xbdc01138	-0.09378284
63	0x3d34f40f	0.044178065
64	0xbcc185b4	-0.023623325
65	0x3e6f08e7	0.2334324
66	0xbd4f1837	-0.050560202
67	0x3e04110b	0.12897126
68	0x3ceb9f9a	0.028762627
69	0x3dceb516	0.10093133
70	0x3d200887	0.039070632
71	0x3d99b28b	0.075047575
72	0x3cd07fd0	0.02545157
73	0x3e215dfd	0.1575851
74	0x3cea1e67	0.02857895
75	0x3bc5b493	0.006033489
76	0x3e1f38a6	0.15548953
77	0x3d7de6e8	0.061987787
78	0x3e16ecae	0.14738724
79	0x3e04c0f3	0.1296423
80	0x3d1778e4	0.036980525
81	0x3e9d023b	0.30665764
82	0xbdd6d064	-0.10488966
83	0xbc9b079b	-0.018924525
84	0x3e33933c	0.17536634
85	0x3d6d5730	0.057944477
86	0xbb357e18	-0.0027693566
87	0xbe06304e	-0.13104364
88	0x3c1d87cd	0.009614897
89	0x3dbb0865	0.091324605
90	0x3e53db86	0.2068921
91	0xbdc60b74	-0.09670153
92	0x3e2f2197	0.17102657
93	0x3d093585	0.033498306
94	0xbc31df09	-0.010856398
95	0x3d4a8a64	0.049448386
96	0x3e2dbeee	0.16967365
97	0x3e0858c3	0.1331511
98	0x3cf0c611	0.02939132
99	0x3d7b6a65	0.061380763
100	0x3dccb645	0.09995703
101	0x3e8e9c6a	0.2785371
102	0xbdf3086d	-0.118668415
103	0xbdf8b1fa	-0.12143321
104	0xbe4624b4	-0.19349939
105	0x3ca1291c	0.019672923
106	0x3e110b94	0.14164573
107	0xbbda0b86	-0.0066542057
108	0x3d418570	0.047246397
109	0x3e192faf	0.14959596
110	0x3d8e4afc	0.06947896
111	0xbe34af0e	-0.17644903
112	0xbdb41f89	-0.08795077
113	0x3dd1f925	0.10252599
114	0x3d2543d7	0.0403479
115	0x3b1478bf	0.0022654978
116	0xbc8bc9af	-0.017063944
117	0x3db43ece	0.088010415
118	0x3c320c3f	0.0108671775
119	0x3ea032aa	0.31288654
120	0x3d942cd8	0.07235116
121	0xbd5136bf	-0.0510776
122	0x3e5d30d1	0.21600653
123	0xbd30ebf3	-0.04319377
124	0x3db4af29	0.08822472
125	0xbdd2bd6f	-0.10290038
126	0xbb91ec49	-0.004453216
127	0x3e0364e6	0.12831458
128	0x3eb885ff	0.3603973
129	0x3d7747fb	0.06037138
130	0x3b816b42	0.0039495537
131	0xbc3ba53c	-0.011452969
132	0x3da9b6e7	0.08286839
133	0x3db778ef	0.08958613
134	0x3e01fc19	0.12693824
135	0xbd147670	-0.036245763
136	0xbd529194	-0.051408365
137	0xbe1d61f6	-0.153694
138	0xbd98be09	-0.07458121
139	0x3d46e546	0.048558496
140	0x3dd28330	0.10278928
141	0x3d596935	0.05307885
142	0x3eac925b	0.3370541
143	0xbda53c03	-0.08068087
144	0x3da86b48	0.08223587
145	0xbdacf5b7	-0.08445304
146	0xbd5386fd	-0.051642407
147	0xbd1dd556	-0.03853353
148	0xbdc1cde5	-0.094630994
149	0xbdcb4439	-0.09925122
150	0x3d24e052	0.04025299
151	0x3dd6e49a	0.10492821
152	0xbd874a39	-0.06605954
153	0x3e006aa9	0.12540688
154	0xbdbb11d9	-0.091342635
155	0xbe1c7142	-0.1527758
156	0x3e2684e9	0.16261639
157	0xbd12097a	-0.03565357
158	0xbc53fbd3	-0.012938458
159	0xbd1434fd	-0.036183346
160	0xbd4e0fdb	-0.05030809
161	0x3c06a3de	0.00821778
162	0xbe05d5ad	-0.13069792
163	0xbc14e804	-0.00908852
164	0xbd50a1b8	-0.050935477
165	0x3e92cf40	0.28673744
166	0xbd76f42a	-0.060291447
167	0x3b21fdfb	0.0024718035
168	0x3d49dcfe	0.04928302
169	0x3cbe8b9d	0.023259932
170	0xbdbec9ef	-0.093158595
171	0x3d0d58ce	0.03450852
172	0x3bb42801	0.005497933
173	0xbdbd5cda	-0.09246226
174	0x3e49c07f	0.19702338
175	0x3d2c1bec	0.042018816
176	0xbd815f4f	-0.06317007
177	0xbd4268a5	-0.047463078
178	0xbdac1cec	-0.08403954
179	0xbdd0ef6f	-0.10201918
180	0x3dc35261	0.09537197
181	0xbdfd4044	-0.12365773
182	0xbd7dcbb8	-0.06196186
183	0x3ce2ac75	0.027670125
184	0x3dd50761	0.10401798
185	0xbdb2b757	-0.087263756
186	0x3dcc87cf	0.09986841
187	0x3ecadf3e	0.39623445
188	0x3dd4fce7	0.103998
189	0xbdd32097	-0.103089504
190	0xbbd6fcea	-0.0065609114
191	0xbc281852	-0.010259705
192	0xbd2bc96d	-0.04194014
193	0xbe0813b1	-0.13288762
194	0xbd5cc072	-0.053894468
195	0x3e40e4b8	0.1883725
196	0xbdca9cca	-0.098931864
197	0x3e00a99d	0.12564702
198	0x3c163908	0.009168871
199	0x3e815930	0.25263357
200	0xbd94ccf4	-0.07265654
201	0x3e86c175	0.2631947
202	0x3dbe78d9	0.093003936
203	0xbd8036e2	-0.06260468
204	0x3d885503	0.0665684
205	0xbda106a1	-0.078625925
206	0xbe479aae	-0.194926
207	0xbdb252d0	-0.087072015
208	0x3e204784	0.15652281
209	0xbccf5fde	-0.025314268
210	0x3d8466eb	0.064649425
211	0xbd9cb59a	-0.07651825
212	0xbc4a0418	-0.012330078
213	0x3d756a59	0.059915874
214	0xbd407369	-0.046985064
215	0xbc8a7301	-0.016900541
216	0xbd83324d	-0.064060785
217	0xbd8ffe22	-0.07030894
218	0xbdaee22a	-0.08539231
219	0x3d8f2994	0.06990352
220	0x3e6d3d3c	0.2316789
221	0x3e5d2f3d	0.21600051
222	0xbd10ea3c	-0.035379633
223	0x3df6ad18	0.12044734
224	0x3e1201d7	0.14258514
225	0x3c34a2bb	0.011025126
226	0xbe4e0d35	-0.20122226
227	0xbd887cb5	-0.06664411
228	0xbd3954be	-0.045246832
229	0xbd0e414b	-0.034730237
230	0xbc618c9e	-0.013766436
231	0x3db07499	0.08615989
232	0x3d1b4b5d	0.03791367
233	0x3e8f5e03	0.28001413
234	0xbd235535	-0.03987618
235	0x3de628eb	0.11238273
236	0x3d803880	0.062607765
237	0x3ddcd489	0.10782725
238	0x3c9df0f5	0.019279936
239	0x3e1d50f1	0.15362908
240	0xbd8c3b29	-0.068472214
241	0x3dc08cf0	0.09401882
242	0xbce96d8c	-0.028494619
243	0x3e8b4842	0.27203566
244	0x3cd1d820	0.025615752
245	0x3d98699b	0.07442018
246	0x3e99868f	0.29985473
247	0x3e856682	0.2605477
248	0xbd9c38c9	-0.076280184
249	0x3ecafbf7	0.3964536
250	0xbd846945	-0.06465391
251	0xbd99d21c	-0.07510778
252	0xbd6f3baf	-0.058406528
253	0x3dbaa8a1	0.09114195
254	0xbdaee4bf	-0.085397236
255	0x3d795784	0.060874477

fc3.bias f4 [30]
0	0x3d280364	0.04101886
1	0x3efa5abb	0.48897347
2	0x3f59b49f	0.8504123
3	0xbcb4a50f	-0.022051362
4	0xbdf811e5	-0.12112788
5	0xbc49e9d6	-0.012323817
6	0x3c97613e	0.018478986
7	0xbc1facde	-0.009745805
8	0xbe18ffab	-0.1494128
9	0xbdb987ff	-0.09059142
10	0xbdef6bda	-0.11690493
11	0xbd54e9d0	-0.051980793
12	0xbd2765e7	-0.040868666
13	0xbdce08da	-0.10060282
14	0xbc898956	-0.01678912
15	0xbdb96426	-0.09052305
16	0xbdd44dbe	-0.10366391
17	0xbd7365c0	-0.05942321
18	0x3cf46043	0.029831057
19	0x397fd042	0.00024396277
20	0xbe1470fc	-0.14496225
21	0xbdd3dcf5	-0.103448786
22	0xbda24b2e	-0.07924496
23	0xbdc4b01c	-0.09603903
24	0xbcba9ac4	-0.022778876
25	0xbd513887	-0.0510793
26	0xbdbf9260	-0.09354091
27	0xbb40b373	-0.0029403835
28	0xbdb9545c	-0.090492934
29	0x3d4841a0	0.04889071
